p1_navigation/checkpoint.pth (torch_old, 213818 bytes, 10 tensors)

fc1.weight f4 [256, 37]
000000 ea 8f 4d 3d 75 9a ed 3d 1e fd 54 be e6 d1 9c bd
       0.050186075 0.11601726 -0.20799682 -0.076572224
000010 30 34 00 bd 37 30 99 3d 0c ba 80 bd 64 1c 5f 3e
       -0.03129977 0.074798994 -0.062854856 0.21788174
000020 6b d4 c9 bd 78 af a9 3d bf 90 af 3c 40 33 1f bc
       -0.09854969 0.08285421 0.021431325 -0.009716809
000030 29 93 5b be c5 96 2d be a7 48 f9 bd 06 4c cc 3c
       -0.21442856 -0.16952045 -0.121720605 0.024938595
000040 3f 62 21 3e d0 b5 4c 3d 10 b9 17 be ea 50 cd bd
       0.15760134 0.049978077 -0.1481669 -0.10025199
000050 31 eb 02 3e 76 ed db 3d 77 b2 98 3c bb 10 e0 3c
       0.12785031 0.107386515 0.018639786 0.027351728
000060 e7 48 95 bd e3 e2 c7 3d e3 fc c3 3d 99 fc 4d be
       -0.07289296 0.09760072 0.09569719 -0.2011589
000070 41 d1 19 be e3 03 8d be 00 ad be bd 53 6a 2d 3e
       -0.1502123 -0.27542028 -0.09310341 0.1693509
000080 87 53 7c bd 19 db 26 be 06 e5 1d be a3 c1 05 be
       -0.061603095 -0.16294517 -0.15419397 -0.13062148
000090 18 bd 88 bd b0 0a 33 3e b4 33 cf bc b4 0a c4 3d
       -0.06676692 0.17484546 -0.025293209 0.09572354
0000a0 af c6 b1 3c 63 69 66 be 69 b1 e3 3c 1d 9c 2f be
       0.021701185 -0.2250114 0.027794557 -0.17149396
0000b0 d1 34 00 be 71 1b e1 bd 39 28 ae 3e 32 3a 19 3d
       -0.12520148 -0.10991562 0.34015062 0.037409015
0000c0 14 d8 29 bd 37 23 8d 3c fd 67 1c 3e 1b b8 82 3e
       -0.041465834 0.017228706 0.15274043 0.25531086
0000d0 49 ee b4 3d f4 67 9e bd 7a d2 07 3e ce 4d c1 bd
       0.08834512 -0.07734671 0.13263884 -0.09438668
0000e0 7b 11 df bd cb b5 3f be c0 2a 1c be 8c 4b e3 bb
       -0.10892006 -0.18721692 -0.15250683 -0.006936496
0000f0 7c 2b b2 3d dd fa 69 3e 84 0e d9 bd 2d 13 72 bc
       0.086997 0.22849603 -0.10598472 -0.01477508
000100 cd 92 04 3e 8e 7c 67 bd 8c c9 db bd 1b 58 50 3c
       0.12946625 -0.05651527 -0.107318014 0.0127163185
000110 0b 94 6b 3d cf 55 45 3e 78 24 e5 bd e6 99 78 bd
       0.05751423 0.19271015 -0.111885965 -0.060693644
000120 db 0b 1a 3d 95 30 d0 3d 25 de d7 3d 7d 60 d5 3d
       0.037608963 0.10165516 0.105404176 0.10418794
000130 92 da 18 3d 33 a6 33 be 60 3c bd 3d bd 7d 92 be
       0.03731782 -0.17543869 0.09240031 -0.28611556
000140 76 cc 47 be fd 94 30 3e 26 33 37 3e 41 6c b0 be
       -0.1951159 0.17244335 0.17890605 -0.3445759
000150 90 7b 44 3d 43 77 6d 3c 16 50 0e bd 6c 8b 9e be
       0.0479694 0.014493766 -0.034744345 -0.30965745
000160 c6 51 36 3d 5d 1c c6 bc 9a 56 a1 bb 53 8a 85 3d
       0.04451158 -0.024183447 -0.004923654 0.06520524
000170 ee 0c 86 3d b0 bb 10 3e df f0 81 be 2f 2f 2d bd
       0.06545435 0.14134097 -0.25379083 -0.042281326
000180 51 8b 68 3d bd f2 66 3d 5d b6 73 be 76 b0 50 be
       0.056773487 0.056383837 -0.23800035 -0.20379815
000190 db a7 1e 3e 31 53 05 3e 5a 24 7c 3a 9a 0e 58 bd
       0.1549372 0.13020016 0.0009618454 -0.0527483
0001a0 98 25 81 be 1e 17 06 bc 84 78 ab bc 7e dd 98 be
       -0.25223994 -0.0081842225 -0.02093149 -0.29856485
0001b0 5f 9b 34 bd 4f dc 4c 3d 70 12 56 bd 50 e8 04 3d
       -0.044093486 0.05001479 -0.052263677 0.032448113
0001c0 3f 45 81 bd 07 05 67 3e f6 51 e3 3d 06 ff 8b be
       -0.06312036 0.22560512 0.11099617 -0.27343005
0001d0 80 ff 02 be 7b 52 46 bd 25 46 97 3d ec 63 1b 3e
       -0.12792778 -0.048418503 0.07386426 0.15174836
0001e0 ce 11 c0 bc 8f 60 8e bd 21 e2 37 b7 b0 e4 94 3d
       -0.02344599 -0.06952011 -1.09603e-05 0.07270181
0001f0 1b 6b 89 bd 8d 7c e3 bd 31 b9 08 bd 79 1b 95 be
       -0.06709882 -0.111077406 -0.033379737 -0.29122522
000200 b0 69 80 3b e8 7b de bd 45 ab 5c 3b 82 8e c2 bb
       0.003918849 -0.10863477 0.003367142 -0.0059373984
000210 ec 2d b1 bd cd b3 40 3b 49 75 30 3e 02 7f 21 be
       -0.08651337 0.0029404045 0.1723224 -0.15771106
000220 40 da f1 3c 89 84 a4 bc 3d f8 39 3d 9a a5 ef 3d
       0.029523015 -0.020082729 0.045402754 0.11701508
000230 d9 f2 59 3d a9 e0 b1 3d 2c e1 3b 3e 5c b1 65 3c
       0.053210113 0.08685429 0.18347615 0.014019337
000240 44 ff 88 be 8c 6a 9b bd 6b f4 f9 3d 68 23 4f 3c
       -0.26757252 -0.075886816 0.12204822 0.012642719
000250 44 b7 b7 bc c7 54 20 be d1 6c 31 be 5e 78 46 be
       -0.022426255 -0.1565734 -0.17326666 -0.19381854
000260 b9 76 bf bd 94 74 f0 3d 31 29 06 3e 83 c2 33 be
       -0.093488164 0.117409855 0.13101651 -0.17554669
000270 82 c0 5e 3d 14 28 c3 be 82 99 e9 3c e2 0a 17 be
       0.05438281 -0.38116515 0.028515581 -0.14750245
000280 42 a5 a4 3c 46 dd 53 bd b1 69 d9 bd 3b 4a 08 be
       0.020098332 -0.051724695 -0.10615862 -0.13309567
000290 6c e7 b0 bd 0e f3 d2 3c bc 89 36 bd 90 ac 48 bc
       -0.0863789 0.025750663 -0.044564947 -0.012248173
0002a0 ae 0b c0 bd 3e 69 a7 bd 67 a8 fc 3d 86 85 7e bd
       -0.09377228 -0.0817437 0.12336808 -0.062139057
0002b0 db 06 91 3e ff 68 ce 3b c0 4d 48 be 72 2c 00 3e
       0.28325543 0.0062991376 -0.1956091 0.12516955
0002c0 32 9b b7 3d a0 d7 97 be 97 e6 10 3e f7 a0 09 be
       0.08965148 -0.29656696 0.14150463 -0.1344031
0002d0 a6 70 6f 3c 35 fd ca bc b6 95 0c 3e bb d8 ee bc
       0.01461426 -0.024778942 0.13728985 -0.02915608
0002e0 d8 f4 b3 3d 32 fb a7 3d ae 3f 76 bd 4c 6f 54 bd
       0.087869346 0.082022086 -0.060119323 -0.051863953
0002f0 cf de 73 bd 97 b1 9d 3d ff e1 39 3e 7d 8f 8a 3d
       -0.05953866 0.07699888 0.18152617 0.067656495
000300 c7 3a ab bd 7d e9 06 bc 46 85 e1 be b2 bf b0 bd
       -0.0836082 -0.008234379 -0.44046992 -0.08630313
000310 4f ec bc bd fa 00 8e 3d f4 01 86 bd f9 a6 ea bc
       -0.0922476 0.0693378 -0.06543341 -0.028644072
000320 ef 52 98 3d a3 4c 67 3d b2 d4 01 be f5 85 fb bd
       0.07437693 0.05646957 -0.12678793 -0.1228141
000330 82 59 fe bd 9c 77 29 3e a6 fa 5c bd 9d 24 a7 3d
       -0.12419416 0.16549534 -0.053949974 0.0816128
000340 72 20 50 3d 5e 99 09 be 06 8e 94 3c ef 21 d9 bc
       0.050812192 -0.13437411 0.018134128 -0.026505439
000350 40 36 84 3d 02 13 4c bd 2a ae f6 3d aa 22 94 3d
       0.0645566 -0.049822815 0.12044938 0.07233174
000360 df 8f 0e be a9 4c d8 bd 77 9b 0d 3d 85 35 33 be
       -0.1392207 -0.10561497 0.03457209 -0.17500885
000370 3b 33 09 bd af 2a 11 3e d3 8b b4 3a 81 cb c0 bc
       -0.033496123 0.14176439 0.0013774581 -0.023534538
000380 2b 9e f4 bd 58 95 f4 3d 7c 1e ef bd 0f 30 e0 3b
       -0.11944231 0.119425476 -0.11675736 0.0068416665
000390 8b 6a fe bd 82 7c 9d bd 39 8f 30 3d e8 29 8f 3e
       -0.12422665 -0.076897636 0.043105338 0.2796166
0003a0 59 0d a3 3c c6 66 0b 3e c5 9c c7 3d ef e0 32 bd
       0.019903826 0.13613424 0.09746698 -0.043671545
0003b0 ee 14 f5 3d b1 fc 00 be 21 70 da bd 6b 5a b5 3d
       0.11966883 -0.12596394 -0.10665918 0.088551365
0003c0 63 1f 28 bc 34 f0 53 3e 63 de 99 bd a4 16 61 3c
       -0.010261389 0.20697099 -0.0751312 0.013738308
0003d0 34 1e 70 3d 78 ef 00 be 50 5b 18 3e eb b0 97 bd
       0.058622554 -0.1259135 0.14878583 -0.07406791
0003e0 3f fb d7 bd e7 f7 90 bd 31 83 7d bd 24 00 e5 3c
       -0.10545968 -0.070785336 -0.061892692 0.027954169
0003f0 fc 97 dc 3d 2d bd 34 bd ac a8 b8 bd 8a 13 95 bd
       0.10771176 -0.044125725 -0.090165466 -0.072791174

fc1.bias f4 [256]
000000 1d b5 9b 3d 3e 3c b2 3d 45 24 d3 3b 63 53 f8 bc
       0.07602904 0.087028965 0.0064435326 -0.0303132
000010 fa 45 73 3d 21 6e 94 3d 68 b5 0e be ea 1f 8c bd
       0.059392907 0.07247568 -0.13936388 -0.068420246
000020 20 1e 20 be 76 9a e9 bd 6e 67 2a 3e bd 76 eb 3d
       -0.15636492 -0.11406414 0.16641018 0.11497257
000030 4a 61 9e bd 53 3b 14 be ad 0d e0 bd 6b 5d b2 3d
       -0.077334 -0.14475755 -0.109401084 0.08709224
000040 07 d3 15 3e f6 c7 b5 bc 40 2b ad bd ca 5c d4 bd
       0.14631282 -0.022190075 -0.08455515 -0.103692606
000050 51 90 34 3c 8c d2 e1 3d 8a f2 d0 3d cd 1c 92 bd
       0.011020736 0.11026487 0.10202511 -0.071343996
000060 a9 d3 25 bd 87 32 40 3d 0d 79 d8 3d 4f d4 2e 3e
       -0.040485058 0.046923187 0.105699636 0.17073177
000070 cf ed 8b 3d 00 42 f8 3d f2 cb 12 3e ba a9 9e bc
       0.06832468 0.121219635 0.14335611 -0.019368041
000080 7d 70 bd bc e5 9e b3 3d 4c 08 62 3d bd fb 18 3e
       -0.023124928 0.08770541 0.055183694 0.1493978
000090 17 42 04 3e 51 d6 2e 3d b5 42 ee bd 66 5c fd 3d
       0.12915836 0.042684857 -0.11633817 0.12371139
0000a0 f6 4b c0 bc 2b 24 e9 3a 9d 9e c2 3d a1 22 b3 3d
       -0.023473721 0.0017787268 0.09502909 0.08746839
0000b0 aa fb 97 bc 13 cf 87 bc c7 05 1a be 8c 4d b9 bd
       -0.01855262 -0.016578233 -0.15041266 -0.09047994
0000c0 9a 5f be bc 56 65 2e 3c e8 a1 1c bd 69 fa 26 3e
       -0.023238946 0.010644278 -0.038240343 0.16306461
0000d0 7d 79 3d bd 7d c2 55 bd f5 fa 35 3d 43 6e 71 bd
       -0.04625844 -0.05218743 0.044428784 -0.058943044
0000e0 40 92 fa 3d 3f f6 67 3b 14 7a 33 3e b4 91 09 3e
       0.12234926 0.0035394577 0.17527038 0.13434488
0000f0 47 b3 4e 3e 3f 4e 36 3d 96 f1 19 3e 88 84 bb 3b
       0.20185576 0.044508215 0.15033564 0.005722586
000100 ea e5 d5 3d 7e b4 7c bd 52 60 ca bd ff ab be bd
       0.10444243 -0.06169557 -0.09881653 -0.093101494
000110 09 85 1d be 14 f2 fb bc ca 18 fc bd fc 35 07 3e
       -0.1538278 -0.03075508 -0.12309416 0.13204187
000120 ab 33 c6 bd a9 32 e3 3d a4 5f 34 3d 77 01 b3 bd
       -0.09677824 0.11093647 0.044036523 -0.08740514
000130 1f 3b 2a 3e 8d ea 29 3d d3 66 01 bc 6a 25 27 3e
       0.16624115 0.04148345 -0.00789805 0.16322866
000140 47 8d e5 bd 78 3f 0d 3e 06 b6 26 3c fa f7 bd 3c
       -0.11208587 0.13793743 0.010175234 0.023189534
000150 52 94 23 3d 4b 3d 8a bd 0c 1e a9 3b 60 66 17 3e
       0.03993637 -0.06749972 0.0051610526 0.14785147
000160 ba 58 03 3e 18 76 b8 3d 91 a2 47 3e 3f 66 f2 bd
       0.12826815 0.090068996 0.19495608 -0.11835908
000170 9e 2e 38 bd cb ef 40 3e 51 b1 91 bc 5c b8 dd 3d
       -0.044966333 0.18841474 -0.017784746 0.108261794
000180 e2 7b ad 3d 57 e2 26 be 7d 39 00 3c 7a 7e 27 3e
       0.084708944 -0.1629728 0.007826206 0.1635684
000190 76 77 49 ba 2d 3a 41 be ea be 0f be 61 19 56 3d
       -0.00076853426 -0.18869849 -0.14037672 0.052270297
0001a0 f5 da 25 bd c4 8c ed bd b7 a1 22 3e f1 f5 b9 bd
       -0.040492017 -0.115991145 0.15882002 -0.09080113
0001b0 3b 00 e3 bd 95 d3 fc 3d 82 c9 ea 3d 59 d7 96 3d
       -0.11084028 0.123450436 0.11464216 0.07365293
0001c0 33 5d 62 3e 97 82 0e 3d ad d0 32 3e 69 b1 84 bd
       0.22105865 0.03479251 0.17462416 -0.06479151
0001d0 de 1d ac bd a9 51 c9 3c 9f b8 ae bd 42 59 9b 3c
       -0.08404134 0.024575071 -0.085313074 0.01896346
0001e0 ea 1d d0 bc ed 07 4a 3d 3f a5 88 bd 17 20 0c 3c
       -0.02540489 0.049323965 -0.06672143 0.008552573
0001f0 8b 1f de bd 2c 3c 0c bd a7 05 b9 3d 35 62 36 3e
       -0.1084586 -0.034237072 0.09034281 0.178109
000200 97 6a 44 3e 05 a0 a0 3d 08 08 c4 3c 12 86 11 3e
       0.19181286 0.07843021 0.02392961 0.142113
000210 de 9c 91 3d 08 a5 36 3c 3a 50 69 3c 03 c3 16 be
       0.07109998 0.011147745 0.014240319 -0.14722829
000220 69 05 ee bc 7b 4d 0c be 4a 5c 16 bd 34 7f fe bd
       -0.029055314 -0.13701431 -0.036709107 -0.12426606
000230 cf 5d 3a 3d 80 83 c4 3d b6 89 34 3d b8 e7 83 bd
       0.04549962 0.09595394 0.044076644 -0.06440681
000240 ea 44 af bc 2b 74 38 bd d5 c1 d3 bd 56 0d 29 3e
       -0.021395165 -0.04503266 -0.10339705 0.16508994
000250 72 a2 ff bd 22 d8 c0 3d 5a b4 63 bc dd bd c6 bd
       -0.12482156 0.09416224 -0.01389798 -0.09704182
000260 a8 74 27 be 9d 9b 1d be 39 bb 68 3b d9 dc cf 3d
       -0.16353095 -0.15391393 0.0035511984 0.10149545
000270 89 f4 ce 3c f8 aa a8 bd c7 d2 f0 3d 16 97 fb 3d
       0.025263088 -0.08235735 0.117589526 0.12284677
000280 d6 4b ce 3d 26 fa 3a 3e ad d1 d7 3d 32 78 b9 bb
       0.10073058 0.18259487 0.10538039 -0.0056600804
000290 bd 1d d5 3d fa 84 d6 bd 63 7d f1 bc d0 bd 87 bd
       0.10406063 -0.10474582 -0.029478734 -0.06628001
0002a0 1c 94 d8 bb 3f 21 b7 bd c2 8b 2e 3e ea ed 90 bd
       -0.006609453 -0.08941888 0.17045501 -0.070766285
0002b0 97 3e c9 3d dc 4b 20 3e d9 d5 9b 3d ea 05 5a bc
       0.09826391 0.15653938 0.076091476 -0.013307074
0002c0 41 ed 26 3e 29 ee 3e be d4 a5 14 3e 21 d9 08 be
       0.16301443 -0.18645538 0.14516383 -0.13364078
0002d0 05 85 3b 3e 0e 1a 20 3d e2 e5 c4 bd 5e 14 37 bd
       0.18312462 0.039087348 -0.09614159 -0.044697158
0002e0 03 37 ae bd 34 21 e2 3d 1f 5a 19 3e d7 99 02 3e
       -0.085065864 0.11041489 0.14975785 0.12753998
0002f0 e0 22 0c 3e 12 9f 2d 3e 40 6b 15 be b9 aa 0e 3e
       0.13685179 0.16955212 -0.14591694 0.13932313
000300 2c 86 17 3d 68 1e d5 3d 34 5c b5 bc b1 7e 56 3c
       0.03699319 0.1040619 -0.022138692 0.013091729
000310 31 ec a9 3d 23 e7 b1 bd 38 9d 96 bd f7 4b b2 bd
       0.08297003 -0.08686664 -0.07354206 -0.087058954
000320 0a 21 0a 3e ea 67 05 3c 66 ed 46 bd e9 73 ae 3c
       0.13489166 0.008142451 -0.048566245 0.021295505
000330 e9 83 21 3c 81 3c 42 bd d7 1b ed 3d ae fe fa 3d
       0.00985811 -0.047420982 0.11577576 0.122556075
000340 a6 ec 34 3e fb c0 f9 3a 56 7b 0d be 84 ec fe bd
       0.17668399 0.0019054705 -0.1381658 -0.124474555
000350 15 10 bc 3c e7 2c d9 bd 49 62 77 3d f0 29 ff bd
       0.022956887 -0.106042676 0.060396466 -0.12459171
000360 d1 f6 01 be 3f 73 95 3d 82 9a 91 3d 79 9c c2 bc
       -0.12691809 0.07297372 0.07109548 -0.023756253
000370 29 56 12 3b 16 a6 a3 bd 09 d6 82 bd a3 2e 8e 3d
       0.0022329187 -0.07990663 -0.0638848 0.06942489
000380 26 4b 04 be d1 22 23 bd 5b 16 9d bc a7 34 20 3d
       -0.12919292 -0.039828125 -0.019175699 0.039112713
000390 1e ac 14 3e 5d 06 00 be e1 a3 3e 3d 7a 26 a8 3d
       0.14518782 -0.12502427 0.046543006 0.08210464
0003a0 18 01 97 3d 9a d7 0e bd 99 4c bb 3d 00 3a e3 bd
       0.073732555 -0.034873582 0.09145469 -0.11095047
0003b0 e1 9f 59 bd 33 28 dd 3c 40 b6 14 3c 03 74 00 be
       -0.053130988 0.026996708 0.009076655 -0.12544255
0003c0 86 f7 df 3d 10 2f 0b 3e 36 e1 ca bd 9d 8a 5e 3c
       0.10935883 0.13592172 -0.09906237 0.013582853
0003d0 97 13 02 be 78 79 73 bc 5c b1 9c 3c c0 90 02 3e
       -0.12702785 -0.014860503 0.01912754 0.1275053
0003e0 66 11 fe 3d bc 0a af 3d 3b e8 d1 bb ae 7a 34 be
       0.12405662 0.08546969 -0.006405858 -0.17624924
0003f0 92 1d 83 bc f3 e6 1e 3e 3f b6 10 3c 88 79 61 3a
       -0.016005311 0.15517788 0.008832513 0.00086011784

fc2.weight f4 [128, 256]
000000 b2 be 78 bb 9c bd cb 3c 9b 00 1f 3d 8f 91 af 3c
       -0.003795546 0.024870686 0.038818937 0.021431712
000010 6a 6b 29 3c 13 fe 4e 3d 7c 86 4c 3d 63 fa 79 3c
       0.010340551 0.050535273 0.04993294 0.015257451
000020 fd b9 16 3d f5 de 91 bc 1e 55 44 3c 6c 08 ab bd
       0.036798466 -0.01780651 0.011983184 -0.08351216
000030 bf 58 4b bb 20 53 16 be 10 19 a9 bb b9 f0 60 bd
       -0.0031028239 -0.14680147 -0.0051604584 -0.05491707
000040 21 01 20 bd 28 8b 58 3d b7 4b 79 bd 5f 6b 5b bd
       -0.039063577 0.052867085 -0.060863223 -0.053569194
000050 01 6b fd bc 4c 64 f5 3d b0 f6 44 bc 91 e7 57 bd
       -0.030934813 0.11982021 -0.0120217055 -0.052711073
000060 58 86 8b bb 2c e2 42 3d 3c f2 a1 3d 20 58 8d bd
       -0.0042579584 0.047578976 0.07907531 -0.06901574
000070 22 32 40 bc 7e 46 39 bd 32 48 9b bc 7b c7 84 3d
       -0.011730703 -0.045233242 -0.018955324 0.064833604
000080 6f 2f e5 3c ee 46 41 3d 33 a1 ce 3d 94 d0 d8 ba
       0.02797672 0.047186784 0.1008934 -0.0016541653
000090 5e ff 49 bd 44 92 a8 3c 23 fb 07 bc e8 eb 8a 3d
       -0.049315803 0.020577557 -0.008299622 0.06783277
0000a0 f1 03 df 3b 1d ea ea bc bf cf 86 bd f8 de 26 bd
       0.00680589 -0.028676087 -0.06582593 -0.040739983
0000b0 c6 f9 97 3d 0d f6 9b 3d 47 98 df 3b 99 23 96 3c
       0.074206874 0.0761529 0.006823573 0.018327521
0000c0 2c dc 45 bd d8 92 9b bb 1f de 57 bd 1f cf d4 bc
       -0.048305675 -0.0047477297 -0.052702066 -0.02597767
0000d0 c1 8a 50 3d 88 00 ae bb e5 1c fc bc 39 37 48 bd
       0.050913576 -0.005310122 -0.030775497 -0.04888079
0000e0 92 57 3f bd 29 74 9a bd 53 95 62 bd b8 96 4d 3d
       -0.046714373 -0.07541687 -0.055318188 0.050192565
0000f0 c1 5a 3d 3b 83 8c ac bc 10 96 3c 3d 28 d6 14 bd
       0.0028893205 -0.021063095 0.04604155 -0.036337048
000100 84 f6 2e 3d c4 c9 9a 3d 07 c2 06 3d 4e 0b 32 3d
       0.042715564 0.07558015 0.032899883 0.043467812
000110 fd 7a f7 bd 5a d9 70 bd b4 b8 94 3d 1a ea 55 bd
       -0.12084005 -0.058801033 0.07261792 -0.05222521
000120 b8 e0 d3 bc 4f ec 0e 3d fa dd 0c 3d d5 76 a0 bc
       -0.02586399 0.03489333 0.03439138 -0.019587914
000130 15 fd 85 bd 64 21 17 3b 1b 92 af bc 9b b0 19 3d
       -0.06542412 0.0023060674 -0.021431973 0.03752194
000140 a0 12 a2 3d 80 3f b5 bc 68 4c a8 bb 97 14 82 bc
       0.07913709 -0.022125006 -0.0051360615 -0.015878959
000150 e1 ed 8b bd dd a8 b9 bb 1a 90 12 bd d1 d2 5a 3d
       -0.06832481 -0.005665882 -0.035781957 0.053423706
000160 52 af cf 3c 97 97 8d bd 69 8e 0c be d7 93 65 bd
       0.025352154 -0.06913679 -0.137262 -0.056049194
000170 9e 24 72 bd 1a d2 95 3d ff 91 0f be 4b 4a 43 bd
       -0.059116952 0.07315464 -0.14020537 -0.047678273
000180 d0 61 82 3d 1d fc 6e bb dd 26 c4 3c 17 d8 d2 3b
       0.063663125 -0.003646619 0.023944313 0.0064344513
000190 a7 1f ca 3d 72 32 f7 bc 09 06 15 bd f9 4b 38 bd
       0.098693185 -0.030175421 -0.03638271 -0.04499433
0001a0 d8 a1 e1 3c e1 df 4c 3d fe d1 93 bd 50 cb 41 bc
       0.027542993 0.050018195 -0.07217787 -0.011828259
0001b0 5b fe 8f bd 96 49 64 bc 9d 8b 82 bc 09 8f a3 3d
       -0.07030936 -0.01393356 -0.015935713 0.07986266
0001c0 94 bb fd 3d 9d 29 05 bd 4e 25 b6 bd a5 59 01 be
       0.12389293 -0.03251039 -0.08893834 -0.12631853
0001d0 97 9d fb bc 16 d4 22 3d 9e 5d 35 bc c6 a3 e7 3c
       -0.030714793 0.039753042 -0.011069683 0.028276335
0001e0 be 23 fe bc 5f be 3b bd 2d e4 a7 bc 15 03 44 bd
       -0.031022903 -0.04583585 -0.020494545 -0.0478545
0001f0 43 9a 8e bc 71 22 e7 3c 2c cf 53 be 6a c3 7c bc
       -0.017407542 0.028214665 -0.20684499 -0.01542745
000200 7a c5 0c bd 86 e2 0f bc 62 3c 2b bd 37 f0 c5 bc
       -0.034368016 -0.008782035 -0.041805632 -0.024162395
000210 50 1e 19 bc 7b 32 b9 bd 0f 03 69 bd 49 c0 19 bd
       -0.009345606 -0.090428315 -0.056887683 -0.037536893
000220 c0 5d 0a bd a3 4e 04 3c 7f b4 31 3b b6 6b a3 3d
       -0.033780813 0.008075389 0.002711564 0.079795286
000230 08 6e 94 bc 07 a7 12 bd 04 be 5d 3d 2d dd 68 bd
       -0.018118873 -0.03580382 0.05413629 -0.056851555
000240 47 3a 59 3b 29 eb ea 3d ec 3a df 3d 61 8b 0d 3d
       0.0033146308 0.114706345 0.1089991 0.03455675
000250 0d ce c6 bb fb 1c 01 3e 56 fa 85 bc 25 b1 12 3d
       -0.0060670436 0.12608711 -0.016354721 0.03581347
000260 e7 8d 92 bd 17 2f ae 3c fc 62 b0 bd 72 45 02 3d
       -0.07155972 0.021262689 -0.0861263 0.03180451
000270 91 bd 5c bc 1b 7d e5 3c 43 3c 8e 3c 42 6e 3e 3d
       -0.0134729305 0.028013756 0.01736272 0.04649187
000280 a8 44 8a bc 6a cb 5a 3d d3 21 2c 3d a5 db a2 bc
       -0.016878441 0.053416647 0.042024445 -0.019880125
000290 9e 82 0e bd 73 18 59 bd 3c aa a2 3d a1 2d e3 3d
       -0.034792535 -0.053001832 0.07942626 0.110926874
0002a0 9a 16 66 bd 7e 81 17 be e7 bc 06 bd d8 30 13 3d
       -0.0561739 -0.14795491 -0.032894995 0.035935253
0002b0 0e bc 16 bd 18 91 8d bd d4 57 2c bd bc fa e8 bc
       -0.036800437 -0.0691244 -0.042075947 -0.028439872
0002c0 0f 31 1c bc 84 ff 8a 3c 44 f8 a8 3d 79 af 6b 3d
       -0.009533181 0.016967542 0.08250478 0.05754039
0002d0 96 83 66 3d a4 7c 87 3c b6 2c d5 bd 16 8b b5 bc
       0.056277834 0.016538925 -0.104089186 -0.022161048
0002e0 5b e6 3b 3d 9d e4 49 3c c0 27 2f bc af 69 70 3d
       0.04587398 0.012322572 -0.0106906295 0.058694538
0002f0 50 db 51 bd 66 26 02 3d e2 3b c6 bd ae aa 8b bd
       -0.051234543 0.0317749 -0.096793905 -0.06819664
000300 ba 1d c3 3b 27 e0 a8 3d 5b 83 e0 3c a4 e2 d8 3d
       0.0059544714 0.08245879 0.027406385 0.10590103
000310 1f 85 a9 3c 23 f3 1a 3d 8d 08 f6 bd dd a5 1f bd
       0.02069336 0.03782953 -0.1201335 -0.03897654
000320 a2 57 ba bc a4 87 e2 3c 91 66 81 bc 0b e1 9a 3d
       -0.022746865 0.02765257 -0.015795978 0.07562455
000330 f6 ef ef bc 72 f6 29 3d fa 33 1d bd 87 63 e6 bb
       -0.029289227 0.041494794 -0.038379647 -0.0070309076
000340 ff 7c cd 3a 0e bb 24 bd 7c e4 4b 3d f6 a6 da bc
       0.001567751 -0.04021745 0.049778447 -0.026690941
000350 da 22 e8 3c 45 03 84 bc b7 58 19 3d 42 ad ed bd
       0.028336931 -0.01611484 0.03743812 -0.11605312
000360 00 18 97 bc e9 77 7e bc 22 d6 94 3c 86 39 83 bd
       -0.018444061 -0.0155315185 0.018168513 -0.06407456
000370 92 4a 35 bd 1c 5b af bd fd 80 b8 bc 37 a6 f6 bd
       -0.04426057 -0.085622996 -0.022522444 -0.12043422
000380 10 d5 9e bd 99 4b 2f 3d ce 6e af bc d5 79 7f bd
       -0.07755482 0.042796705 -0.02141514 -0.062372047
000390 fe e2 ce bc f8 c1 19 3d a7 bb 6e 3d d2 72 1d 3d
       -0.025254723 0.0375385 0.058284428 0.03843958
0003a0 af a9 1b 3d 6a a8 76 bd b4 24 8e bb df fa 90 3d
       0.03800362 -0.060219206 -0.0043378714 0.070791
0003b0 52 ca a4 bc c8 aa 0e 3d da 85 9e bd f6 13 f5 bd
       -0.020116005 0.03483084 -0.07740374 -0.11966698
0003c0 b9 2c c9 3b 97 41 05 bd e4 94 cc bc a9 91 6d bc
       0.0061393646 -0.032533254 -0.02497334 -0.01450006
0003d0 1b fa 90 3c 56 a1 13 bc 07 ca 3c 3d d2 58 82 bc
       0.017697385 -0.009010633 0.046091106 -0.015911493
0003e0 d6 18 0e bd f4 d2 12 3d 2a e2 30 3d 84 07 96 bd
       -0.034691654 0.03584571 0.043184437 -0.07325652
0003f0 71 18 9f 3d c9 5e 8b bc 93 18 01 3d 40 2e 6c bd
       0.07768334 -0.01701297 0.031517576 -0.057661295

fc2.bias f4 [128]
000000 58 12 90 bd 00 5d bf 3d b8 f3 24 bd 09 c3 89 3d
       -0.07034749 0.0934391 -0.04027149 0.06726653
000010 ca e0 1e bd 1f 1f cc 3b 81 79 7e 3d 14 8e e5 bc
       -0.038788594 0.006229296 0.062127594 -0.02802185
000020 c9 d7 34 3d 91 9b 65 3a 0a 5f 94 bc bd 00 57 bc
       0.0441511 0.0008758838 -0.018111724 -0.013122735
000030 42 b2 06 bc 1f c7 31 3d 71 80 15 3c e6 b1 35 3c
       -0.008221211 0.043402787 0.009124861 0.011089778
000040 8b ef 27 bd 1f 56 bd bc 56 ce 6b bd 82 9f 10 bd
       -0.04099993 -0.023112355 -0.057569824 -0.03530837
000050 44 cc 7e 3d ab 48 3d 3d 0a 91 c8 bc 2d 11 84 bc
       0.06220652 0.04621188 -0.024483223 -0.016121471
000060 5e af 85 bc 39 13 cb 3c 92 31 b0 bb 58 72 79 3d
       -0.016318973 0.02478944 -0.005377003 0.060900062
000070 0a 0a 12 bd 79 dc 46 3d aa 6b f3 bc b8 33 5e bc
       -0.035654105 0.048550103 -0.029714424 -0.013562135
000080 75 b4 46 3d 7e 28 9f bc b1 56 fe 3c fb f0 04 bc
       0.04851194 -0.019428488 0.031047197 -0.008114095
000090 0f cd db 3c 28 e3 ce 3c 0e 28 52 3d f5 06 55 3d
       0.026831178 0.0252548 0.05130773 0.052008588
0000a0 a6 3d 7a 3b 36 0e 74 3d 35 24 d7 3c bf 71 f1 bb
       0.0038183718 0.059583865 0.026262382 -0.007368296
0000b0 c2 e0 3d 3c 11 fd 04 bc 95 f0 80 3d fc 87 40 bd
       0.011589231 -0.008116976 0.062958874 -0.047004685
0000c0 17 fc 25 3d 62 c6 59 3d 42 49 51 bd 02 0d 37 3d
       0.040523615 0.05316771 -0.051095255 0.04469014
0000d0 6c 19 00 3d 7f e2 67 3d 0e 31 97 3d fe 54 31 3d
       0.031274244 0.056612488 0.07382403 0.043293945
0000e0 b5 f6 ad 3d 4f 84 51 bd 99 d8 bb 3c df 4d 5b 3d
       0.08494321 -0.05115157 0.02293043 0.05354106
0000f0 7e 3a 1d 3d 84 a7 f3 bc 9d 89 8f 3d 15 d8 da 3c
       0.03838586 -0.029742964 0.070086695 0.026714364
000100 ae b2 51 3c cf d5 e5 3d 23 f0 97 3d b5 db 88 bd
       0.012798948 0.112224214 0.07418849 -0.06682531
000110 fb 49 41 3d 1b 01 2c 3c d1 4e 7c 3d 2d a7 89 bd
       0.047189694 0.01049831 0.061598603 -0.067213394
000120 46 c8 66 3d 40 dd 59 3d f6 c0 29 bd e5 0f 78 3a
       0.05634334 0.053189516 -0.041443788 0.00094628177
000130 3f f9 5a 3c c1 f2 00 bc 37 06 4d bb d1 07 4a 3d
       0.013365089 -0.007870377 -0.0031284222 0.04932386
000140 d3 e5 bc 3c b2 66 c4 bc be fa b8 bc 42 fa 28 bc
       0.023058807 -0.02397475 -0.0225805 -0.010313572
000150 f9 fb 48 3d cc 75 88 3d 59 f6 43 3d a5 7a 13 3d
       0.049068425 0.06663093 0.047842357 0.036005635
000160 d4 c5 72 3d a8 20 d4 3c 3b a3 11 3d e6 30 ed 3d
       0.059270695 0.025894478 0.03555606 0.11581592
000170 6e a3 24 3d f0 79 f7 bb 3d fd 5d bc 51 91 8c 3d
       0.04019492 -0.007552378 -0.013549146 0.068636544
000180 ce 5d db 3d e9 54 14 3d b2 9c 10 3d d2 a0 c0 3b
       0.10711251 0.03621379 0.035305686 0.0058785463
000190 72 52 83 ba 11 00 68 3d 8b bc 95 bb 8d 8b 42 3d
       -0.0010019077 0.05664069 -0.004569595 0.047496367
0001a0 18 16 aa 3d 22 8d 31 bd ed 9c 52 3d 50 26 cc 3d
       0.08304995 -0.043347485 0.051419187 0.09968245
0001b0 7a a9 cc 3c 99 37 6d 3d 3d 45 ae 3d 60 a7 82 3d
       0.024983156 0.05791435 0.085093 0.063795805
0001c0 82 ba 5a 3d 73 a2 26 3d 78 5a 0b 3d 22 f0 e2 bc
       0.053400524 0.040682267 0.034021825 -0.027702395
0001d0 e7 53 b8 bc 69 95 56 bd e4 f2 25 3d 8e bc 88 bd
       -0.022500945 -0.052388582 0.04051484 -0.06676589
0001e0 72 fc 02 3d 9f 46 10 3d 16 24 f2 3c 96 11 c5 bb
       0.03197903 0.0352236 0.029558223 -0.0060140593
0001f0 6d 26 7e 3d f5 a4 4a 3d 05 d5 3e bd 98 fd be 3d
       0.062048364 0.04947372 -0.04658987 0.09325713

fc3.weight f4 [64, 128]
000000 c2 ba 15 be a3 6f 9a be b9 2b 8e be 18 ad af 3d
       -0.14622024 -0.30163297 -0.27767733 0.08577937
000010 d0 31 06 be 11 25 01 be af 5f 77 3d ff 9b c7 bb
       -0.1310494 -0.12611796 0.060393985 -0.006091594
000020 56 e4 fc be d8 39 3b bc dd dc 4a be 7d 6a 89 ba
       -0.49392956 -0.011427365 -0.19810815 -0.0010484006
000030 7a fb d0 3c a3 25 0a 3e f2 98 1d bd 99 24 82 3d
       0.025510538 0.1349092 -0.03847594 0.06354637
000040 91 3e 53 be 23 1f a1 be 48 dc 96 3d 6d e5 d3 bd
       -0.20629336 -0.31469068 0.07366234 -0.10346494
000050 f8 5c ad be 47 e5 06 3d 29 25 94 3d 98 73 38 be
       -0.33859992 0.0329335 0.0723365 -0.18012846
000060 1a da 0b be 49 3a f2 bd a9 e2 d1 3c 36 87 b0 bc
       -0.13657418 -0.11827523 0.025620775 -0.021548849
000070 51 d9 64 be 7b ca 26 be bb e1 70 3c 0e 13 47 be
       -0.22348525 -0.16288178 0.014702256 -0.19440863
000080 f2 88 86 bd 06 17 c8 bd d8 4e 83 3d c4 80 09 3e
       -0.06569089 -0.09770016 0.064115226 0.13428026
000090 cc c5 e2 3d 8a c0 3b bd 63 b2 62 be e1 8f 80 3d
       0.11072883 -0.045837916 -0.22138362 0.06277443
0000a0 f0 dc fc 3a 0b 13 48 bd 52 1b cb 3d 9f d9 84 bd
       0.0019291919 -0.048846286 0.0991732 -0.064868204
0000b0 34 37 2c bb 33 e3 d9 3d 67 10 a5 3c 5f b4 c0 be
       -0.002627802 0.10639038 0.020149423 -0.37637612
0000c0 ab 4c d2 3c 2f b5 d3 bd 70 9e d2 bd 35 61 0b bd
       0.025671324 -0.103372924 -0.10284126 -0.03402825
0000d0 7b 77 07 be e9 4e a5 3d 49 9c ae bd c8 f7 f0 bd
       -0.13229172 0.080716915 -0.08525903 -0.117660105
0000e0 d9 4c 36 be 9e 04 a9 3d c0 c8 e7 3d 3e d4 1a 3d
       -0.17802753 0.08252834 0.11317587 0.037800066
0000f0 da 3a 19 bb e5 81 3a be 16 50 01 be 47 18 16 be
       -0.0023381026 -0.18213613 -0.12628207 -0.14657699
000100 4b f2 11 bd 12 21 1e 3b e9 5f b3 be d3 12 36 bc
       -0.03563146 0.0024128598 -0.3503411 -0.0111128865
000110 e4 d2 f7 3c fd 5d a3 3c 3d 7f 42 3c 2f 64 6e be
       0.030251928 0.019942278 0.011871156 -0.23280405
000120 0e 48 e9 3d 17 37 8b 3d 6c d8 8d be dd 4c 77 bd
       0.113906965 0.06797617 -0.2770418 -0.060376037
000130 1b 4e 63 be 16 5d d1 bd 64 1f 09 bc 41 cf 2b 3d
       -0.22197764 -0.10222833 -0.0083693005 0.0419457
000140 a6 51 9a bd e3 6c 0f 3d 64 84 95 3d 1a 9d 74 be
       -0.075351045 0.03501595 0.07300642 -0.23888054
000150 17 57 06 3e eb 73 2e 3d d2 df 3c 3e b5 fa 42 b7
       0.1311916 0.042591017 0.18444756 -1.1621673e-05
000160 e3 69 da 3d f6 a6 0c bd ac 10 8f 3d d2 49 60 3d
       0.106647275 -0.034338914 0.06985602 0.0547579
000170 eb e8 16 be c3 dc 0c 3e 1c cc a8 bd 25 e8 ca 3d
       -0.14737289 0.13756089 -0.08242056 0.09907559
000180 73 70 5f be 49 ec 92 3c eb e5 a9 bd 4c 1f c7 bd
       -0.2182024 0.017934935 -0.082958065 -0.09722766
000190 01 a1 5c 3d 4d 50 4a be 05 f7 a9 be 89 6f 36 be
       0.053864483 -0.19757195 -0.33196273 -0.17815985
0001a0 99 ec 66 3d b2 6b 12 3c 59 a9 86 3d b6 b1 b1 bd
       0.05637798 0.008936809 0.06575269 -0.08676474
0001b0 aa c6 08 3d bd 9d 42 3c bc 47 8b bd 85 27 8a bc
       0.033392586 0.011878428 -0.068007916 -0.016864548
0001c0 22 2e 43 be d1 79 1d bd 83 c8 8e be 7e 0a 3c bd
       -0.19060567 -0.03844625 -0.27887353 -0.045908444
0001d0 08 ae a2 bc 37 59 89 3c 7d 28 66 3d f3 fc a2 be
       -0.019858375 0.016766174 0.056190956 -0.3183361
0001e0 b8 f0 8c 3d dd e1 9f 3d 82 3b de 39 c7 6d 85 be
       0.06881851 0.07806752 0.00042387476 -0.26060316
0001f0 02 20 69 3d b5 33 95 3c 2a 4a 37 bd 53 04 15 be
       0.05691529 0.018213132 -0.044748463 -0.14552431
000200 bb c1 ee 3d 7a c1 2b 3d be 84 bf bd 30 c6 8e bd
       0.11658045 0.04193256 -0.093514904 -0.06971395
000210 48 e2 6f bd b4 e4 6b be df b8 fc 3c cd ba 38 3e
       -0.058565408 -0.23036462 0.030849872 0.18040009
000220 a6 d5 8b 3d eb 0d 7b bc 17 ab 6f bd 29 0b bd bd
       0.068278596 -0.0153231425 -0.058512773 -0.09230644
000230 5d 8f 46 bc f2 b3 a9 bc 45 04 09 3e 46 e3 a6 3c
       -0.012119141 -0.020715687 0.13380535 0.020372044
000240 69 53 9f 3d 3a c3 48 bc eb 87 8a bd d4 35 07 be
       0.07779581 -0.012253577 -0.067642055 -0.13204128
000250 cb a4 9f 3b 08 b9 9b 3d df c1 87 3d cf 7c 86 bd
       0.00487194 0.07603651 0.06628775 -0.06566774
000260 cd 82 9d bc be 0d 5f 3c ea 3d dc 3d 8a 28 a9 3b
       -0.01922741 0.013614116 0.10753997 0.0051623033
000270 0c 4f 2f 3c d8 c9 d0 3d 6a a4 00 be 28 33 17 bd
       0.010699999 0.10194749 -0.12562719 -0.03691402
000280 9b 69 1f bd 8e 5b 37 3d 69 24 46 bd 31 7a 21 bd
       -0.038919073 0.044765048 -0.048374567 -0.03942317
000290 2f 4d 55 bd ed 55 79 bc 71 69 34 3d a9 e2 33 bd
       -0.05207556 -0.01521824 0.04404587 -0.04391733
0002a0 0f e0 b8 3d 01 5b 2a bc a0 61 51 3d bc 64 70 3e
       0.09027111 -0.010397674 0.051118493 0.23475927
0002b0 9d f0 83 bb 9d 40 2c 3c e5 dc d9 bd 52 eb e0 3d
       -0.004026486 0.010513452 -0.106378354 0.10982384
0002c0 21 f4 88 3d f5 fb 10 3d 5a 35 6b 3c 74 58 04 bd
       0.06687189 0.035396535 0.014355982 -0.032310918
0002d0 01 e3 10 3d 94 3f 1e 3e 16 e0 1f 3c 6a fe bd bd
       0.035372738 0.1545394 0.009758016 -0.09277041
0002e0 fd 34 f6 3b 79 3d 8a bc 8e c7 b2 bd 2c 87 bf ba
       0.007513641 -0.016875016 -0.08729468 -0.0014612428
0002f0 34 99 e4 bd ea 06 67 3c a9 2b f5 bd 9c a3 9b bd
       -0.11162034 0.01410077 -0.11971218 -0.075995654
000300 44 6a 22 be 9d 08 49 bd 58 75 5c 3d 7f b7 e9 3c
       -0.1586085 -0.04908048 0.053822845 0.02852988
000310 1f 06 d7 3c 92 16 98 bd e9 9a b7 3d 4b 68 61 3d
       0.026248036 -0.0742618 0.08965094 0.055031102
000320 5f bf 7f 3d c4 a7 b6 bd b8 e1 ff bd 75 66 33 3d
       0.062438365 -0.089187175 -0.12494224 0.043798883
000330 ef e8 c4 3d 1e 45 f6 bd 13 13 08 be 5b 95 07 bd
       0.09614741 -0.12024902 -0.13288526 -0.03310142
000340 bf d3 a4 bd 76 c1 3a 3d 7b c3 e9 bd 33 ae 9b 3d
       -0.080482 0.045594655 -0.11414238 0.07601585
000350 78 e8 8e 3d 8a f2 91 3d 30 13 68 bd d3 4c 05 3c
       0.06977934 0.07126339 -0.056658924 0.008135992
000360 a0 aa 93 bd e7 47 66 3b 45 d9 3d 3c 3a f6 0a bd
       -0.072102785 0.0035138072 0.011587446 -0.033926226
000370 01 94 30 3d 6f 48 e6 bc c2 19 2f bc 9c 0e df 3d
       0.043109898 -0.02811071 -0.0106872935 0.108914584
000380 2a ce 36 3c 1a d9 1c 3d 7b 07 e5 3d 16 ac 5a 3d
       0.011157552 0.03829298 0.111830674 0.05338677
000390 fa 21 10 bd 70 23 fc bd 7f 35 1d 3d c1 9d db bc
       -0.035188653 -0.12311447 0.038381096 -0.026808621
0003a0 72 c2 b2 bd 62 7a 65 3e 17 f4 8b 3c 47 7d 54 3d
       -0.08728494 0.22409967 0.017084165 0.051877286
0003b0 1b f8 73 3c 04 c5 c7 3d 25 3c c7 3d 8a f4 4c be
       0.014890696 0.097543746 0.097282685 -0.20015159
0003c0 d3 b4 5a 3d 1f 07 0f 3d 82 bc 6c 3d c6 1d 49 3d
       0.053395104 0.0349189 0.057796963 0.04910066
0003d0 c3 ca 82 3d ae cd 24 3d 16 44 1e 3d 5e 7f 82 bd
       0.0638633 0.040235214 0.03863915 -0.063719496
0003e0 d8 ff 15 be a7 3d 57 be ac 7a c6 bd 40 36 b8 3c
       -0.14648378 -0.21019612 -0.096913666 0.022486806
0003f0 70 d0 cc bc d7 8e 25 be 86 f4 50 bd 68 19 c5 bd
       -0.025001734 -0.1616777 -0.051014446 -0.096239865

fc3.bias f4 [64]
000000 0a a7 2e bd 9e e0 38 3d 2d f6 a0 3d 0a 81 c8 bb
       -0.04263977 0.045136087 0.07859454 -0.0061188983
000010 26 32 f3 3d bf 13 db 3d ad 66 af bd 6b 39 af bc
       0.118747994 0.10697126 -0.08564506 -0.021389684
000020 ea bd af 3d 6f 7f e0 3d 17 b0 88 3c c8 6a c4 bc
       0.08581145 0.10961806 0.016685529 -0.023976699
000030 59 35 c6 3d fc d4 91 bc 79 ba a4 bc 88 4f 0e 3c
       0.09678144 -0.017801754 -0.020108448 0.008685954
000040 0d 37 0b 3d f4 3a 45 3d c8 20 d3 bc fc c1 2d bc
       0.033988047 0.048151925 -0.025772467 -0.0106053315
000050 95 13 1e 3d c7 71 3f 3c f9 23 64 bc 00 2f 54 bd
       0.038592894 0.0116848415 -0.013924592 -0.051802635
000060 b2 ec 91 3d 1b 14 9a bc ec 78 04 3e cc f4 d3 3d
       0.07125224 -0.018808415 0.12936753 0.10349426
000070 3b f4 d8 3c dd 19 28 bd 7b 30 04 3d 86 ba 25 3e
       0.026483646 -0.04104029 0.032272797 0.16184434
000080 82 dc aa 3d f1 16 05 bc 96 da e1 3d c4 c4 ca bc
       0.0834284 -0.008123145 0.1102802 -0.024752028
000090 96 68 bc 3c dd d8 db 3d a5 12 9e bd 07 2e 1e 3e
       0.02299909 0.10734723 -0.077184 0.15447246
0000a0 04 55 d4 3d a4 c9 44 3d 9c 79 4a bd 56 62 b4 3d
       0.10367778 0.048043862 -0.049432382 0.088078186
0000b0 9b 64 86 bd f6 a8 60 bd 33 48 2b bd d1 16 3d 3d
       -0.06562158 -0.054848634 -0.0418169 0.046164338
0000c0 e9 26 20 bd 87 12 17 bd 4f 15 6a bd ae 93 fb 3c
       -0.039099608 -0.036882903 -0.057149228 0.030710068
0000d0 79 7b 26 3d 2e a7 b0 bd 43 f9 4f 3d 64 49 16 bd
       0.040645096 -0.08625637 0.050774824 -0.036691085
0000e0 10 dc 8e 3d da 47 82 bd 79 00 bb bc de bb 8c 3b
       0.06975567 -0.06361361 -0.022827374 0.0042948565
0000f0 d4 75 d2 3c fe 40 d7 3d d5 c4 11 3d b8 ed aa 3c
       0.02569095 0.10510443 0.035588104 0.020865306

fc4.weight f4 [32, 64]
000000 09 8b b0 bd 08 83 f7 bc 99 a9 2c 3e 73 8d 3d bc
       -0.08620269 -0.030213848 0.16861571 -0.011569369
000010 6c 41 07 3b 33 9e ba 3d 00 98 d1 bd 1d 97 25 3e
       0.002063836 0.09112205 -0.1023407 0.16170926
000020 35 c8 34 be cf 72 26 bd e7 36 7a 3d 3a 3f a8 bd
       -0.17654498 -0.040636834 0.061087515 -0.082151845
000030 12 cc 42 bc d8 4e 8b bd d4 6e 00 bc 64 29 ba bc
       -0.0118894745 -0.068021476 -0.0078389235 -0.022724815
000040 9d 37 a9 bd 64 e4 22 3d b7 1a 89 bd 43 11 87 bc
       -0.082625605 0.03976859 -0.066945486 -0.016487723
000050 77 0d ea bb 69 71 09 3e 93 78 20 be 72 2a f0 3c
       -0.0071427184 0.13422169 -0.15670995 0.029317115
000060 f2 e6 c4 bd 4e 96 d0 be 2d 5c 4c 3c 5b 63 95 bc
       -0.09614362 -0.40739673 0.012473148 -0.018235853
000070 4e 99 18 3d 13 36 e8 3c e9 b9 d5 3d cc 2f 02 be
       0.037255578 0.028346097 0.1043585 -0.12713546
000080 af bc 10 be ef 16 bf 3c 99 13 db bd a3 71 a5 be
       -0.14134477 0.023326365 -0.10697097 -0.3231326
000090 5e 75 8f 3e 0b 60 64 bd d3 9d c3 3c db 37 ae 3d
       0.28019232 -0.055755656 0.023878967 0.08506747
0000a0 3c 5d 8d 3d 2d fb 72 bd 90 7b b2 bb 33 db 87 3d
       0.06902549 -0.05932157 -0.0054468587 0.06633606
0000b0 f7 49 4a be 31 3d 9d 3d 2f 6e 90 bd 30 ce 4d bd
       -0.19754778 0.07677687 -0.07052266 -0.050245464
0000c0 e6 c5 1a 3e b3 1d 14 be 4f 4c e4 3d 5d 9d 08 bd
       0.15114555 -0.14464454 0.11147367 -0.0333532
0000d0 71 c1 a2 bd 7e b3 88 3e 0c 11 da 3c 79 0f b4 bd
       -0.07947052 0.26699442 0.026619457 -0.08792014
0000e0 4a 45 76 bd 13 e2 66 bc a2 d9 f0 3d 52 7a 45 be
       -0.060124673 -0.014091986 0.1176026 -0.19284943
0000f0 a0 54 a2 3d c9 bd de 3d 8c d9 7a 3d ca d5 5e bd
       0.07926297 0.108760424 0.061242625 -0.054403104
000100 d0 d1 98 bd 10 f5 68 3b 12 6f ca bd 33 37 68 bd
       -0.074618936 0.003554646 -0.09884466 -0.056693267
000110 1f cd d6 bd bd 39 31 3d 36 51 9c 3d 0e ca 4c 3d
       -0.104883425 0.043267954 0.07632677 0.049997382
000120 65 39 cb bd 21 69 c0 bd 34 25 d6 bb 86 6c 04 bd
       -0.099230565 -0.09395052 -0.0065351967 -0.03233006
000130 27 11 42 bd 3d 2d f8 3d 60 25 8e bb 0f 72 8e bd
       -0.04737964 0.121180035 -0.0043379515 -0.06955349
000140 27 e0 16 3d b4 95 c0 3d 10 d7 c3 bc 45 12 ff 3d
       0.036834862 0.094035536 -0.02390626 0.124546565
000150 54 58 39 3c 8b 3d a2 3d 3a d2 cf bd 89 cc 4f 3d
       0.011312563 0.07921895 -0.101475194 0.05073217
000160 5f 8c d6 bc 0f ab 13 bd 59 30 b7 3d c7 8c bd 3b
       -0.026189981 -0.036051806 0.089447685 0.005784604
000170 70 03 c8 3d 7a dd 3b bc 50 47 9d bd b4 03 0a 3c
       0.09766281 -0.011466378 -0.076796174 0.008423734
000180 a8 07 e9 bd 17 fb 77 bd 60 44 bc 3d 66 37 cc 3d
       -0.113784134 -0.060542192 0.09192729 0.09971504
000190 e8 7c ba bd a6 fd c2 bd 03 81 a9 bd 0b ae 92 bd
       -0.09105855 -0.09521036 -0.0827656 -0.07162102
0001a0 5f b4 4e 3d f0 33 cd 3d 4e 6a c6 bd f0 c3 9e bb
       0.050464984 0.10019672 -0.09688245 -0.004845135
0001b0 ac 21 c6 bd 64 d6 22 3d 41 55 48 bd b3 8a 70 3c
       -0.09674391 0.03975524 -0.04890943 0.014681506
0001c0 36 4e 9c 3d 6e b2 d1 3d f2 23 c2 bc 40 2a 35 3d
       0.07632105 0.10239111 -0.02369878 0.044229746
0001d0 d7 2b 0a 3d 37 fb 6d 3a fc 93 e9 bc 9e ca 80 bd
       0.033733215 0.00090782664 -0.028512947 -0.06288646
0001e0 b4 13 e3 3d 77 c0 63 3c b6 cb 5e bd b3 6e d6 bd
       0.110877424 0.013900868 -0.054393493 -0.10470333
0001f0 94 9e a7 bd 1e 30 c2 bc 86 55 6e 3c 32 8f 72 bd
       -0.08184543 -0.023704585 0.014546758 -0.059218593
000200 33 60 bc 3e 3d 83 80 3b ba d8 23 3d 05 3b b0 be
       0.36792144 0.003921895 0.04000161 -0.34420028
000210 db a7 61 bb ff 7a f5 3d cd fa 87 3c ef a1 fe bc
       -0.0034432325 0.1198635 0.016599083 -0.031083075
000220 23 4b 91 3d 8c 50 1e bc e1 3f 1a 3d 97 38 b7 bd
       0.07094409 -0.009662759 0.037658576 -0.089463405
000230 5e de f7 3c 88 ec 46 3d 75 c3 4b bd 1d 16 51 3e
       0.0302574 0.048565418 -0.04974695 0.20418592
000240 b2 8c ea 3d 69 b0 05 be 43 d0 00 3e 8c cb 58 3e
       0.11452617 -0.13055576 0.12579446 0.21171397
000250 49 b6 74 bd ea b3 9d 3b 99 12 af 3b da 7f b6 bd
       -0.059744153 0.004812707 0.005342793 -0.089111045
000260 05 f6 06 be 48 d9 2e 3c 1c 2f 06 3e 24 4c bf 3d
       -0.13179787 0.010671921 0.13103908 0.093406945
000270 a4 2f 0e 3c 26 13 05 be 9c b3 64 bd 2d 5b ab 3b
       0.008678351 -0.12995586 -0.05583535 0.005229375
000280 3e 24 be 3c ee 21 d0 bd 7f 65 e1 bd b0 03 69 3e
       0.023210641 -0.101627216 -0.11005687 0.22755313
000290 a9 5d 89 bd db 15 1e 3e ea b1 c7 3d 4b bc 5f bc
       -0.067073174 0.15438025 0.09750731 -0.013655732
0002a0 e2 9c bb 3d 23 6d 4d be 5f fb a6 bd e4 2f f0 3a
       0.091607824 -0.20061164 -0.08153414 0.0018324819
0002b0 f7 8c 3e be af 1f 99 3d 48 45 c0 bc 27 38 11 3e
       -0.18608461 0.07476746 -0.023470536 0.14181577
0002c0 01 fc eb 3d 33 73 5a bd ed 13 de bb ec 69 34 bc
       0.11522675 -0.05333252 -0.0067772777 -0.011011582
0002d0 bd 39 ef bd 94 d3 86 bd 6a d7 2b bd 5b dd b0 bc
       -0.116809346 -0.06583324 -0.04195348 -0.021589926
0002e0 98 26 7c bb 26 20 d2 3d d5 22 0c bd 69 14 18 3d
       -0.0038475152 0.10260038 -0.034212906 0.03712884
0002f0 7d ae 86 bd 14 42 8f bc 82 26 78 bd 8b 3f 65 bd
       -0.0657625 -0.017487563 -0.0605836 -0.055968802
000300 d1 be 5b be 6e c0 0a 3e 9c 2b c3 bd d0 8d db bc
       -0.2145951 0.13549969 -0.09529802 -0.02680102
000310 73 a6 1a 3e 84 9e 88 bb 4c dc 94 bd e3 08 bf 3b
       0.15102558 -0.004169287 -0.07268581 0.005829917
000320 e3 c7 20 3e ff 17 f3 3d ae 44 f8 bc e0 f8 a0 bd
       0.1570125 0.11869811 -0.030306187 -0.07859969
000330 ef 38 b9 3d c1 6c 2d bc e1 80 b5 bc 98 45 c4 3c
       0.09044062 -0.010585011 -0.02215618 0.023958966
000340 18 fd 73 be 1e 2c 49 3d 9b 77 d7 bd 31 7d e1 3b
       -0.23827016 0.04911434 -0.1052086 0.006881379
000350 c6 aa 0b 3e 00 94 af 3d 79 56 d9 3e fd 46 ba 3d
       0.13639364 0.08573151 0.42448786 0.09095571
000360 1f 77 86 bd 16 62 3d bd de 4d e8 3d b2 ee 5b 3d
       -0.06565689 -0.04623612 0.11342977 0.053694434
000370 3a 16 c6 3c e7 5d 16 3d 7a fe 2f bd bd 42 bb 3d
       0.02418052 0.036710646 -0.042967297 0.09143589
000380 67 44 20 3e db 4e 19 3d 78 b0 22 3e 88 99 da bc
       0.15651093 0.037428718 0.1588763 -0.026684538
000390 85 c7 bb bd fa cb bb 3d c5 25 01 be b5 cd 54 bd
       -0.09168915 0.09169765 -0.12612064 -0.05195399
0003a0 9d 1a 97 bd a3 35 f6 3d b4 09 69 3e 92 34 c0 bc
       -0.07378123 0.12021949 0.22757608 -0.023462567
0003b0 b1 ca 4b bd ee 42 c3 bd 9c 59 90 bd 79 e4 34 bd
       -0.04975385 -0.0953425 -0.07048342 -0.0441632
0003c0 8a 36 b4 bc 07 45 a8 bd 99 72 84 3e 5d e8 27 3d
       -0.021998663 -0.08216291 0.2586868 0.040993083
0003d0 be 96 ab 3d f2 f5 0f be 4d 8a 4d 3d 42 10 fc 3d
       0.08378361 -0.14058664 0.050180722 0.123077884
0003e0 5c a8 a7 3e bc b7 a7 3d 51 07 c2 bd 9b b3 bc 3e
       0.32745636 0.081893414 -0.09474052 0.36855778
0003f0 70 eb ac 3d 4c ea bd 3d 0e 3a 1b 3e 99 57 c4 3d
       0.08443344 0.09273204 0.15158865 0.095870204

fc4.bias f4 [32]
000000 4b 9c a2 3d f7 d0 fa bc 48 5a a0 bd 34 4b 1c 3e
       0.07939967 -0.03061722 -0.0782972 0.15263063
000010 f1 3c d4 bd f4 01 1b 3e c5 36 db bc bd 85 b0 bd
       -0.10363186 0.15137464 -0.026759515 -0.086192586
000020 11 e3 43 bd c9 31 f2 3d 82 1f ec bd f1 b1 13 be
       -0.04782397 0.11825902 -0.11529447 -0.14423348
000030 aa 05 bc bd 73 3d 92 bd 69 7a 8b 3d 76 24 c8 3d
       -0.09180768 -0.07140627 0.06810457 0.09772579
000040 6c a8 e7 3d d8 4f 97 bd b4 9c 9a bd 79 b1 94 3d
       0.11311421 -0.07388276 -0.0754942 0.07260413
000050 eb 42 8e bd b7 d8 89 3d f0 3e 70 bd 3c 1f 19 3c
       -0.06946357 0.06730788 -0.058653772 0.009345826
000060 67 5e c1 3d 46 a9 91 bd 7e 86 d8 bd ec d5 47 3b
       0.09441834 -0.071123645 -0.10572527 0.0030492498
000070 b4 53 3d 3d 64 5e ba bd 69 fc 9e bd d5 ff 43 bd
       0.046222404 -0.09100035 -0.07762987 -0.047851402

logits.weight f4 [4, 32]
000000 94 fc 66 be a0 77 dc 3d 9e 69 c8 bc d2 9c f0 3d
       -0.22557288 0.10765004 -0.024464425 0.11748661
000010 eb 3b 00 3e 6a 24 4d 3e ce 89 85 be 59 1e 33 3e
       0.12522857 0.20033422 -0.260817 0.17492045
000020 91 5d 00 be 74 fa ca bb d9 fb 02 3e f6 ec a3 bd
       -0.12535693 -0.006194407 0.12791385 -0.08004181
000030 c5 12 b1 3d de 9c 47 be f1 f0 11 3e b2 9f fe 3d
       0.08646158 -0.19493434 0.14252068 0.12432803
000040 d1 f4 a4 3e a1 1c ab 3d ee 52 42 3c d5 10 9b 3d
       0.3221803 0.0835507 0.011860592 0.0757157
000050 38 e4 74 3e bc 6a d4 3d 61 aa e3 bd f8 7b bf 3d
       0.23915184 0.103719205 -0.111164816 0.09349817
000060 7c f6 d4 3d 4d 43 8a be c3 83 5a 3e 26 35 78 bd
       0.10398576 -0.2700447 0.21339326 -0.06059756
000070 5a 88 a2 be 28 63 2e bd 63 dc 92 bd 59 58 75 3c
       -0.31744653 -0.04257503 -0.07170942 0.014974677
000080 c5 c6 48 bd 27 9f 55 3d ef ea 8a 3e 90 ff b8 bb
       -0.049017686 0.052153733 0.27132365 -0.0056457
000090 ae ca cc bd c7 10 c9 3d a1 f3 ae bd 52 f5 24 3e
       -0.099995956 0.09817653 -0.08542562 0.16109207
0000a0 c0 12 43 be a8 a3 29 3e b7 76 0b 3e 70 84 3b 3e
       -0.19050121 0.16566336 0.13619505 0.1831224
0000b0 15 9e 6a bc 93 57 f6 3d 72 08 76 3d 49 61 12 bd
       -0.014319916 0.12028422 0.060066648 -0.03573731
0000c0 f9 20 0e bf 18 e3 78 bd fd cf 96 3d a2 bb 02 3e
       -0.5551906 -0.06076345 0.07363889 0.12766889
0000d0 8f bb 05 3e 09 6b cf bd 44 ee 09 3e 09 e5 3b 3e
       0.13059829 -0.10127837 0.13469797 0.18349089
0000e0 de 0f 72 be 15 10 1f be 40 0b 11 3f 50 f0 84 3d
       -0.23638865 -0.15533479 0.5665779 0.064911485
0000f0 21 37 ba be 63 41 26 3a 7d cf 11 3e 29 08 4b be
       -0.36370185 0.0006342141 0.14239307 -0.19827332
000100 f7 af c9 bd f8 71 1c 3e 7b b0 2a be c2 df 07 bc
       -0.09848016 0.1527785 -0.16668884 -0.008293094
000110 88 df 64 3d 10 77 07 3e 3e 15 f4 3d 64 d2 0b 3d
       0.05587724 0.13229012 0.11918114 0.03413619
000120 0b 5e 3c be 2a fc cf bd c0 f8 51 3b a9 c8 a1 3e
       -0.1839525 -0.10155518 0.0032039136 0.31598404
000130 57 30 9e bd 00 b7 a1 be 6c d6 05 3e df 62 02 be
       -0.07724064 -0.3158493 0.13070077 -0.12733029
000140 68 af 5d bd 44 4f f0 3d 06 7a 60 3e c1 0f 9b 3d
       -0.05412236 0.11733869 0.21921548 0.07571364
000150 c8 a1 fe bc e2 76 b1 3d d8 4f db bc 54 c6 5e 3e
       -0.031083003 0.08665253 -0.02677147 0.21755344
000160 01 90 f5 bd 19 d6 c0 3d f4 78 52 3d f3 c0 5d 3e
       -0.11990357 0.09415836 0.05138488 0.21655636
000170 fc 37 3d be 09 d3 7d be 14 75 4f 3c 21 24 7c be
       -0.18478388 -0.24787535 0.012662191 -0.24623157
000180 ff 87 2f 3e 3b 89 49 bd 67 62 d6 be c7 b7 b7 3d
       0.17141722 -0.04920314 -0.4187195 0.089705996
000190 52 bd e7 3d b8 45 14 3e 16 7b fd bd f7 5c 14 be
       0.11315407 0.1447972 -0.123769924 -0.14488588
0001a0 18 45 33 3e e9 ee 81 ba b8 05 fb 3c 63 1a 54 bd
       0.17506826 -0.000991312 0.030642375 -0.051782977
0001b0 0c 41 3b bd 7d a7 b8 bb 24 83 3d 3e c5 40 21 be
       -0.04571633 -0.0056352005 0.18507057 -0.15747364
0001c0 bd 65 a6 3e 1d b0 b7 bd 54 12 70 3d e0 78 22 3e
       0.32499495 -0.08969138 0.05861123 0.15866423
0001d0 b1 3c 41 3b 39 e4 9a bd ed be 15 be 8e 98 c1 bd
       0.0029485638 -0.07563061 -0.14623614 -0.094529256
0001e0 c5 53 be bd 17 37 7e be 67 f4 1c 3e 3c 06 be 3e
       -0.092933215 -0.24825703 0.15327607 0.3711413
0001f0 d3 a0 60 be 16 4e 53 be fb 1f 64 3c 66 f2 c4 3c
       -0.2193635 -0.20635256 0.01392364 0.024041366

logits.bias f4 [4]
000000 23 67 96 3b d8 8f 7a bc 41 9b 73 3d ea bf 78 bd
       0.0045899316 -0.015293084 0.059474234 -0.0607299
