p1_navigation/checkpoint.pth (torch_old, 205784 bytes, 8 tensors)

fc1.weight f4 [256, 37]
-0.064727254 0.21771304 -0.23665766 -0.16285397 -0.26864135 0.090513304 -0.02593626 0.019482307
-0.13697897 0.155657 -0.095304154 -0.075739264 -0.17432033 -0.17662284 0.11686857 0.11152921
-0.11509894 0.091936894 -0.2732339 -0.21952839 0.033530187 0.11138308 -0.060056414 0.1273098
-0.2220989 0.07504043 0.11707212 -0.2051533 -0.14523363 0.11861659 -0.117336236 0.13951737
-0.26997015 0.16539072 -0.1931712 -0.2025455 -0.088851854 0.04492501 0.26207852 0.029529111
-0.30528632 -0.36363178 -0.12595798 -0.115432784 -0.1311768 -0.42955387 -0.02462697 -0.013561396
-0.1787979 -0.06740527 0.28777862 0.2657214 0.25125384 -0.03083618 -0.26826316 -0.67978513
-0.7961132 -0.26271835 0.043544486 -0.203357 -0.06796845 0.11705803 -0.19812594 0.14399597
0.04007402 -0.29895768 -0.048182838 -0.099367656 0.06186212 0.20409249 -0.24879518 -0.15297104
0.16943249 0.030838452 0.09242588 0.09036718 0.19845484 -0.36117238 0.20064706 -0.28963253
-0.023462005 0.16823395 0.02053188 -0.2552678 -0.036309827 0.071569845 -0.051542208 -0.25076726
0.10701802 -0.005756982 -0.16999927 -0.1614904 0.3730156 -0.08722347 -0.4463364 0.00499862
0.15671906 -0.1372123 -0.48371726 -0.5830311 0.17695676 0.24082439 0.079074584 -0.032746267
-0.4281895 0.14644493 -0.06091239 -0.31058022 -0.15786901 -0.05312481 -0.021960614 0.106985435
-0.18429838 0.18580307 -0.011245593 -0.27337274 -0.029669803 -0.10966673 0.012960164 0.13614324
0.29490253 0.24215491 -0.27081224 0.001989597 -0.32328457 -0.714095 0.06432907 -0.08376441
-0.13534455 -0.29102945 -0.30885452 -0.18002775 -0.10056721 0.04582997 0.29520053 0.04514195
0.052762005 -0.422895 0.1839515 -0.21346729 0.14967431 0.041029084 0.056560792 0.08091551
-0.13544345 -0.15824135 0.2262781 -0.009799026 -0.10509353 -0.07137128 -0.14613457 -0.3305647
-0.20356257 0.20487225 0.19951974 -0.3816686 -0.041853968 -0.20511138 -0.008857954 -0.028976005
-0.04916002 -0.05300085 0.21270296 -0.25085875 -0.07355431 0.08929677 -0.12264713 -0.2144834
-0.32430694 -0.117985815 0.23189007 -0.10452387 0.5898894 -0.038318872 -0.22297432 0.19980112
-0.12091865 -0.21204925 0.036149077 -0.16355538 0.11883514 -0.2167277 0.35057542 0.012200367
-0.005562526 -0.014664029 0.07765265 0.0014055675 -0.17855105 0.21102068 0.34315053 0.21255466
-0.42040035 -0.40541935 -1.3451438 -0.064586446 -0.018201862 0.035934873 -0.09494299 0.12269863
0.13277176 0.11348055 -0.16320401 -0.093973085 -0.0014040009 0.13521755 0.03934729 0.037663195
0.16566257 -0.040196285 0.10611182 0.04113319 -0.058191996 -0.08463655 0.03592759 0.15377174
-0.06908865 -0.033572067 -0.072723106 -0.17024775 -0.006202105 0.049240254 0.069462195 -0.112383254
-0.058872093 -0.07831678 -0.5468482 0.08055344 -0.107598834 -0.17437 -0.26135305 0.2527165
-0.37763005 0.28954595 0.06258208 -0.13074918 -0.025725694 -0.09495517 -0.257342 -0.08606204
0.12539077 0.25013047 -0.057525463 -0.057423286 0.091696545 -0.47653475 0.28857446 -0.022268306
-0.10592079 -0.2294521 -0.031109663 0.049185615 0.12784515 -0.119290404 -0.2223902 -0.010211661
00000000: b98f 84bd 2bf0 5e3e 6356 72be 31c3 26be
00000010: 5c8b 89be 0a5f b93d 4878 d4bc 5c99 9f3c
00000020: 3744 0cbe 8c64 1f3e d32e c3bd 301d 9bbd
00000030: 0781 32be 9edc 34be ca58 ef3d 6d69 e43d
00000040: feb8 ebbd 6949 bc3d 50e5 8bbe 0dcc 60be
00000050: f356 093d d01c e43d b7fd 75bd 805d 023e
00000060: e56d 63be ccae 993d 82c3 ef3d b513 52be
00000070: 20b8 14be 41ed f23d fb4d f0bd a4dd 0e3e
00000080: 8739 8abe 2f5c 293e acce 45be 1668 4fbe
00000090: f6f7 b5bd 4a03 383d 282f 863e 09e7 f13c
000000a0: 7d4e 9cbe f22d babe 21fb 00be 0668 ecbd
000000b0: 3653 06be 7cee dbbe 80be c9bc 9e30 5ebc
000000c0: cc16 37be c60b 8abd b857 933e a30c 883e
000000d0: 58a4 803e 289c fcbc ca59 89be 6606 2ebf
000000e0: 13ce 4bbf 0583 86be b45b 323d d13c 50be
000000f0: 0b33 8bbd 1fbc ef3d 87e1 4abe ae73 133e
00000100: a824 243d fb10 99be 5e5b 45bd 4581 cbbd
00000110: 2263 7d3d 9ffd 503e 2ac4 7ebe 71a4 1cbe
00000120: b67f 2d3e eca0 fc3c c849 bd3d 6e12 b93d
00000130: bf37 4b3e 96eb b8be 6c76 4d3e b74a 94be
00000140: 6433 c0bc 8545 2c3e 7932 a83c 76b2 82be
00000150: 9db9 14bd 3693 923d ec1d 53bd 9164 80be
00000160: 432c db3d 11a5 bcbb 4a14 2ebe bd5d 25be
00000170: e7fb be3e 38a2 b2bd 3486 e4be 77cb a33b
00000180: f67a 203e 6281 0cbe caa9 f7be 8741 15bf
00000190: 2734 353e ab9a 763e dbf1 a13d f320 06bd
000001a0: a73b dbbe a9f5 153e 457f 79bd 5f04 9fbe
000001b0: 6aa8 21be 6799 59bd bfe6 b3bc 2e1b db3d
000001c0: b7b8 3cbe 2943 3e3e 703f 38bc 83f7 8bbe
000001d0: 160e f3bc f398 e0bd de56 543c 2269 0b3e
000001e0: 77fd 963e 75f7 773e e7a7 8abe e663 023b
000001f0: 8e85 a5be eece 36bf f6be 833d ad8c abbd
00000200: c397 0abe d001 95be 2e22 9ebe 3259 38be
00000210: 2ef6 cdbd 35b8 3b3d 8624 973e c4e6 383d
00000220: f91c 583d b285 d8be c85d 3c3e 2b97 5abe
00000230: 3944 193e 1d0e 283d 4aac 673d 08b7 a53d
00000240: b0b1 0abe 050a 22be 72b5 673e 188c 20bc
00000250: 473b d7bd 1b2b 92bd 4da4 15be c73f a9be
00000260: b572 50be 08ca 513e e74e 4c3e 116a c3be
00000270: 116f 2bbd b808 52be f420 11bc 165f edbc
00000280: 045c 49bd 6b17 59bd cece 593e 8f70 80be
00000290: a4a3 96bd 3ae1 b63d 6b2e fbbd 89a1 5bbe
000002a0: 8f0b a6be 8ca2 f1bd 9774 6d3e 9c10 d6bd
000002b0: fe02 173f 40f4 1cbd 6153 64be aa98 4c3e
000002c0: 32a4 f7bd 7023 59be 0e11 143d 107b 27be
000002d0: d65f f33d deed 5dbe 9f7e b33e 0ce4 473c
000002e0: da45 b6bb 6541 70bc 5a08 9f3d 053b b83a
000002f0: 16d6 36be ce15 583e 6db1 af3e eea7 593e
00000300: b73e d7be 2093 cfbe ac2d acbf e645 84bd
00000310: 121c 95bc 7230 133d 7871 c2bd 6b49 fb3d
00000320: 52f5 073e 7e68 e83d f41e 27be f674 c0bd
00000330: 7406 b8ba 7876 0a3e a02a 213d b944 1a3d
00000340: 73a3 293e dca4 24bd 2751 d93d 477b 283d
00000350: bb5a 6ebd ed55 adbd cf28 133d 5776 1d3e
00000360: 5a7e 8dbd dd82 09bd daef 94bd 6d55 2ebe
00000370: 073b cbbb 26b0 493d 3242 8e3d 3129 e6bd
00000380: dd23 71bd 8c64 a0bd 3efe 0bbf 34f9 a43d
00000390: c75c dcbd 0d8e 32be 11d0 85be 0f64 813e
000003a0: ba58 c1be 5e3f 943e 092b 803d 1de3 05be
000003b0: b1be d2bc db77 c2bd 55c2 83be 4b41 b0bd
000003c0: 7066 003e 1a11 803e d29f 6bbd ae34 6bbd
000003d0: 66cb bb3d 5dfc f3be 08c0 933e 066c b6bc
000003e0: 00ed d8bd 7ef5 6abe b1d9 febc db76 493d
000003f0: d7e9 023e 874e f4bd 42ba 63be d04e 27bc

fc1.bias f4 [256]
0.0019087972 0.0006434063 -0.025341034 -0.049113486 0.015749278 0.08387986 -0.21593094 -0.14256477
-0.23831373 -0.12457412 0.0572867 0.17725146 -0.12663303 -0.15617834 -0.06929004 0.006368383
0.046825625 -0.01507473 -0.19327433 -0.18977058 -0.07140157 0.00801898 0.049779184 -0.20770931
-0.038496118 0.10358098 -0.012037725 0.22750102 0.00665596 0.21806781 0.2468864 -0.06955624
-0.07019105 0.08078794 0.04030698 0.05878917 -0.018652828 0.017848175 -0.15312256 0.099955425
-0.09650889 -0.050532237 0.052346393 0.010318415 -0.07204849 -0.10627561 -0.2033682 -0.16830571
-0.11303907 -0.04801866 -0.12679984 0.05330262 -0.10952933 -0.04844395 0.006289927 -0.07207368
0.007043653 -0.046057638 0.0037761577 0.014967906 0.19042113 -0.028617635 0.1268233 -0.02073646
0.10241526 -0.07791258 -0.27550203 -0.11531694 -0.2089995 -0.05315828 -0.18547496 0.10107694
-0.1950037 0.10654316 0.021056406 -0.06126746 0.16743486 0.035822462 -0.044421356 0.029572645
-0.20709036 0.033304833 -0.009570679 -0.010375855 0.021068148 -0.06308271 -0.069317676 0.10099166
0.055736158 -0.0024222853 0.13153589 -0.19218306 -0.060529143 0.07757614 -0.058970157 0.047529418
0.13754164 -0.2428521 0.001743192 0.109506294 -0.045078825 -0.22576505 -0.19592822 0.010256155
-0.07538947 -0.19014865 0.06371379 -0.18662988 -0.1783331 0.035912037 0.096847504 0.010665376
0.09068464 -0.0139966365 0.04565675 -0.15370984 -0.14733376 0.010458495 -0.1393201 -0.02322569
-0.08280669 -0.04443343 -0.10375384 0.003612539 -0.20312898 -0.07768726 0.01628231 0.11752803
0.19730246 -0.054702286 -0.054454725 0.05426644 0.06461185 0.011092031 0.027757268 -0.23490265
-0.13204816 -0.21448117 -0.07160732 -0.21336009 -0.027842216 0.068222575 0.04684242 -0.18511914
-0.02313629 -0.08211177 -0.11183683 0.09528605 -0.18639754 0.029602464 -0.002046008 -0.18875715
-0.13728383 -0.13742402 -0.04375418 -0.0102293575 0.024639318 -0.12198915 0.044405926 0.059638865
0.06931118 0.18743928 0.038519654 -0.05828071 0.020187013 -0.19177288 -0.06743323 -0.12676597
-0.045957997 -0.18850605 0.15165348 -0.08131675 -0.04718779 0.13872252 0.0896734 -0.060805593
0.11929068 -0.25365883 0.090685226 -0.15423769 0.11919434 0.02157389 -0.1847657 -0.0855382
-0.0961294 0.0076873456 0.051081546 0.09662432 0.067137346 0.02862087 -0.1834732 0.059529327
0.057492234 -0.008735295 -0.034989327 -0.10776002 0.087780885 -0.120573215 -0.17119184 -0.04107843
-0.007388264 -0.041307356 -0.094551064 0.011576139 -0.041218314 -0.12671506 0.09532418 0.012269283
0.08411432 -0.030773692 -0.1324451 -0.210823 -0.052000538 -0.1486817 0.008645289 -0.15649055
-0.09707071 0.036277805 0.03367739 -0.07586901 -0.018524664 -0.17953575 -0.11310196 -0.0355023
-0.30648348 -0.052188188 -0.08829185 -0.04586838 0.12973155 -0.206034 -0.09739696 -0.041312512
-0.038102217 -0.07891356 0.041363195 -0.13438451 -0.080840126 -0.0136450175 -0.04627687 -0.20347837
0.03049477 0.17583534 -0.22385345 -0.0031978686 -0.18254898 -0.07475297 -0.11937277 0.20443349
0.12042422 0.0037383626 -0.020189881 -0.15526596 -0.12743028 0.1339027 -0.07008108 -0.066518635
00000000: 9b30 fa3a 44aa 283a 0098 cfbc 392b 49bd
00000010: a104 813c 34c9 ab3d 001d 5dbe 80fc 11be
00000020: 8408 74be b720 ffbd 75a5 6a3d 6881 353e
00000030: 17ac 01be 37ed 1fbe f0e7 8dbd dead d03b
00000040: 3acc 3f3d 00fc 76bc b5e9 45be 3853 42be
00000050: fd3a 92bd 0a62 033c 42e5 4b3d c0b1 54be
00000060: 1bae 1dbd 4422 d43d e139 45bc 07f6 683e
00000070: 3d1a da3b 2b4d 5f3e cacf 7c3e 8173 8ebd
00000080: 53c0 8fbd 2674 a53d ef18 253d eacc 703d
00000090: d1cd 98bc 5636 923c 29cc 1cbe 6eb5 cc3d
000000a0: 74a6 c5bd e4fa 4ebd 2c69 563d 920e 293c
000000b0: 298e 93bd 07a7 d9bd c13f 50be 5558 2cbe
000000c0: 0781 e7bd 37af 44bd d1d7 01be d953 5a3d
000000d0: ea50 e0bd 2a6d 46bd bb1b ce3b 5e9b 93bd
000000e0: 72ce e63b efa6 3cbd 6a79 773b f33b 753c
000000f0: c2fd 423e 886f eabc f8dd 013e 82df a9bc
00000100: 18bf d13d a190 9fbd 9a0e 8dbe 4a2b ecbd
00000110: f703 56be 7fbc 59bd 26ed 3dbe 6d01 cf3d
00000120: 0daf 47be 4d33 da3d 7c7e ac3c 97f3 7abd
00000130: 0b74 2b3e 93ba 123d 2bf3 35bd 5542 f23c
00000140: 7f0f 54be a66a 083d 56ce 1cbc 7dff 29bc
00000150: 1c97 ac3c 8231 81bd 6df6 8dbd b7d4 ce3d
00000160: 994b 643d 34bf 1ebb 58b1 063e a3cb 44be
00000170: 68ed 77bd 3de0 9e3d b18a 71bd 35ae 423d
00000180: b7d7 0c3e 39ae 78be d17b e43a d644 e03d
00000190: 93a4 38bd f42e 67be 68a1 48be 6f09 283c
000001a0: cb65 9abd 54b6 42be 607c 823d e71b 3fbe
000001b0: f49c 36be 8018 133d fc57 c63d d4bd 2e3c
000001c0: deb8 b93d 2652 65bc 9302 3b3d 1d66 1dbe
000001d0: a9de 16be 1b5a 2b3c eea9 0ebe cd43 bebc
000001e0: 8e96 a9bd d4ff 35bd e57c d4bd 59c0 6c3b
000001f0: 0b01 50be 801a 9fbd 7b62 853c 89b2 f03d
00000200: a809 4a3e 810f 60bd eb0b 5fbd 7d46 5e3d
00000210: 3853 843d 5abb 353c 3663 e33c 528a 70be
00000220: a237 07be f4a0 5bbe dca6 92bd 117b 5abe
00000230: 5c15 e4bc 47b8 8b3d d6dd 3f3d df8f 3dbe
00000240: 5188 bdbc 372a a8bd b50a e5bd 5525 c33d
00000250: ffde 3ebe de80 f23c 5116 06bb 8e49 41be
00000260: 2294 0cbe e2b8 0cbe 9537 33bd 0999 27bc
00000270: 65d8 c93c 73d5 f9bd fde2 353d e247 743d
00000280: 05f3 8d3d 15f0 3f3e c9c6 1d3d c1b7 6ebd
00000290: 3c5f a53c 1c60 44be 6f1a 8abd f0ce 01be
000002a0: 743e 3cbd bb07 41be 0d4b 1b3e 6589 a6bd
000002b0: fc47 41bd 470d 0e3e b0a6 b73d 490f 79bd
000002c0: ac4e f43d 92df 81be 2db9 b93d 7cf0 1dbe
000002d0: 2a1c f43d babb b03c 3833 3dbe a72e afbd
000002e0: 7edf c4bd 21e6 fb3b e23a 513d f9e2 c53d
000002f0: 4e7f 893d 5176 ea3c 66e0 3bbe 06d5 733d
00000300: fa7c 6b3d 7c1e 0fbc f850 0fbd 49b1 dcbd
00000310: 77c6 b33d 17ef f6bd ea4c 2fbe db41 28bd
00000320: 4019 f2bb e731 29bd fda3 c1bd d9a9 3d3c
00000330: 89d4 28bd 98c1 01be 5339 c33d 1a05 493c
00000340: 2144 ac3d 1c19 fcbc b09f 07be fce1 57be
00000350: 84fe 54bd 0440 18be f8a4 0d3c 0f3f 20be
00000360: 02cd c6bd 0998 143d 4ef1 093d 3661 9bbd
00000370: 09c1 97bc 38d8 37be 00a2 e7bd dc6a 11bd
00000380: 67eb 9cbe 48c3 55bd 5cd2 b4bd 7ce0 3bbd
00000390: 59d8 043e 94fa 52be 0f78 c7bd 4f37 29bd
000003a0: 1211 1cbd 6f9d a1bd 746c 293d 189c 09be
000003b0: 828f a5bd 5a8f 5fbc d18c 3dbd a25c 50be
000003c0: 2bd0 f93c 2e0e 343e d739 65be 5593 51bb
000003d0: 1fee 3abe 1618 99bd b679 f4bd 0357 513e
000003e0: f9a0 f63d 51ff 743b 4065 a5bc 0afe 1ebe
000003f0: 157d 02be ca1d 093e ab86 8fbd ec3a 88bd

fc2.weight f4 [128, 256]
-0.022244498 0.022900695 0.0035750794 -0.023427667 -0.042822953 0.0032252073 0.06113647 0.0059161806
0.037807394 -0.0710403 -0.0037892016 -0.092486106 0.0035207034 0.03480869 0.060318567 -0.15364756
0.0033884184 0.03703708 -0.0059881946 0.005017256 -0.12613055 -0.021780314 0.04992737 -0.09704647
-0.027017988 0.0051254504 -0.005611189 -0.056011457 -0.054377086 -0.073735036 -0.04024619 0.045212515
0.019224778 0.014486236 0.0036246534 -0.07963689 -0.09689613 -0.021863857 -0.011644568 -0.076536916
-0.05536955 0.017550526 -0.063043386 -0.048172247 0.016659552 -0.028961359 -0.021631734 0.043368965
-0.1155909 -0.026649289 -0.15667422 -0.079208694 -0.06563613 0.05668479 -0.06762808 -0.12218731
-0.046843007 -0.044719007 -0.10689452 0.033957653 -0.0866104 -0.029413713 0.030817106 0.004262011
-0.049100008 0.05364425 -0.037857156 -0.027501682 -0.03208576 -0.13333404 -0.012414454 -0.12326367
0.020802679 0.039683845 -0.017545244 0.0800608 -0.15983677 -0.017063571 -0.07099187 0.016636891
0.04466258 -0.14955322 0.048416212 -0.20019059 -0.009181803 -0.08986344 -0.053801477 -0.01703295
-0.049920034 -0.08064578 0.10714369 -0.06601793 -0.13079287 0.009152241 0.023402095 0.028329933
0.08207031 -0.03261381 0.042070385 -0.016064867 0.06944047 -0.074345484 -0.08763143 -0.08380202
-0.07961472 -0.10640566 -0.011714014 0.017965127 -0.06559028 -0.071353294 -0.060717657 0.017167704
0.028155401 -0.06262039 -0.055081107 0.056361295 -0.010050211 -0.041090976 -0.049811915 -0.003507238
-0.10363142 -0.08028053 -0.04464211 -0.12778632 -0.006350547 0.054600697 -0.07101181 -0.020614423
-0.053659115 -0.02353643 -0.09448519 -0.035761368 -0.095183976 -0.09046369 0.109290384 -0.07333689
0.055662088 -0.0011909406 0.054967668 0.027441489 -0.16742216 -0.004851619 -0.05290506 -0.058254857
-0.040590685 -0.021674318 -0.0427724 -0.14810374 0.0073563117 -0.010826221 -0.003366287 0.0020346409
0.009617938 -0.075921156 -0.18697669 0.14201665 -0.019969903 -0.10195343 0.045879465 -0.030723084
-0.12446571 -0.046173383 0.0465399 0.076486476 -0.06118264 -0.10475101 -0.00722225 -0.119741105
-0.09434171 -0.0088962605 -0.018053802 -0.057131276 -0.02963126 0.013794943 0.00774728 -0.04677003
-0.06919548 0.055370115 0.0064441287 -0.04196072 0.10633784 0.07976717 -0.024195695 -0.13828298
-0.055847805 -0.09009813 0.048614606 0.03315692 -0.034321148 0.070173256 0.029588737 0.00016620188
0.06228679 -0.005165253 -0.10839495 -0.052536868 0.08885212 -0.025573382 -0.057101984 -0.055795286
-0.13474517 0.056478474 -0.14280638 0.044621423 -0.15510151 0.009787295 -0.02422296 0.017500313
0.053030837 -0.13684703 -0.018506033 -0.08938452 0.020643389 0.022256557 -0.0073175603 -0.13138132
0.0059734806 0.049010247 -0.026135027 -0.056865282 0.018187122 -0.08753036 -0.010217568 -0.04444507
-0.01453202 0.06874655 -0.08273583 -0.036892027 0.005944405 0.09896686 -0.028821416 -0.0016470547
-0.039548494 -0.008949733 -0.009345287 -0.08895621 -0.054941583 0.041346893 -0.055219416 0.05321024
-0.0025804217 -0.066363715 0.0056595006 -0.055492483 -0.049862705 -0.14517763 -0.039857045 -0.061950333
-0.08789409 0.040169634 -0.067303285 -0.06628148 0.05137151 -0.036157735 0.007089413 -0.018641142
00000000: 183a b6bc 3d9a bb3c e14b 6a3b 61eb bfbc
00000010: 1f67 2fbd 005e 533b 3c6a 7a3d 85dc c13b
00000020: eddb 1a3d 947d 91bd 4154 78bb 5b69 bdbd
00000030: 9abb 663b 8f93 0e3d 9a10 773d c955 1dbe
00000040: 3a10 5e3b 31b4 173d 9e38 c4bb cb67 a43b
00000050: 5e28 01be a16c b2bc a480 4c3d 4dc0 c6bd
00000060: d454 ddbc 65f3 a73b 11de b7bb 456c 65bd
00000070: 82ba 5ebd 6502 97bd 30d9 24bd c230 393d
00000080: 487d 9d3c ad57 6d3c 988b 6d3b aa18 a3bd
00000090: 7a71 c6bd d51b b3bc dcc8 3ebc 63bf 9cbd
000000a0: 2ecb 62bd 1fc6 8f3c e41c 81bd 4350 45bd
000000b0: 9d79 883c 5f40 edbc 0935 b1bc a8a3 313d
000000c0: ecba ecbd 9c4f dabc 356f 20be 2b38 a2bd
000000d0: 3c6c 86bd 4f2e 683d 9780 8abd 573d fabd
000000e0: 74de 3fbd 472b 37bd 84eb dabd 2e17 0b3d
000000f0: cb60 b1bd 07f5 f0bc 2874 fc3c 57a8 8b3b
00000100: 171d 49bd 13ba 5b3d 1b10 1bbd 354b e1bc
00000110: 5c6c 03bd b888 08be fe65 4bbc aa71 fcbd
00000120: 616a aa3c 878b 223d 0bbb 8fbc ebf6 a33d
00000130: 40ac 23be e7c8 8bbc 2f64 91bd 174a 883c
00000140: 1cf0 363d 7b24 19be 1450 463d c3fe 4cbe
00000150: 466f 16bc 530a b8bd f05e 5cbd af88 8bbc
00000160: f378 4cbd 9d29 a5bd 276e db3d 6934 87bd
00000170: 91ee 05be 48f3 153c c0b5 bf3c 2d14 e83c
00000180: 7b14 a83d 0f96 05bd ff51 2c3d 789a 83bc
00000190: ce36 8e3d 7242 98bd 1b78 b3bd 65a0 abbd
000001a0: 0b0d a3bd 36eb d9bd 23ec 3fbc 9a2b 933c
000001b0: 3254 86bd ad21 92bd 14b3 78bd 49a3 8c3c
000001c0: 28a6 e63c 1e3f 80bd ba9c 61bd 1adb 663d
000001d0: a4a9 24bc 034f 28bd 9407 4cbd b1d9 65bb
000001e0: b63c d4bd 1e6a a4bd a5da 36bd 6bda 02be
000001f0: 4018 d0bb fba4 5f3d a46e 91bd 94df a8bc
00000200: a9c9 5bbd 79cf c0bc 7481 c1bd 837a 12bd
00000210: d1ef c2bd 0745 b9bd a3d3 df3d a731 96bd
00000220: eefd 633d 5619 9cba c725 613d f9cc e03c
00000230: b770 2bbe 54fa 9ebb fab2 58bd a59c 6ebd
00000240: 6b42 26bd 578e b1bc 1d32 2fbd 82a8 17be
00000250: 370d f13b 7660 31bc ed9c 5cbb 9c57 053b
00000260: 8e94 1d3c 8d7c 9bbd d176 3fbe d06c 113e
00000270: ec97 a3bc f6cc d0bd 1bec 3b3d faae fbbc
00000280: e1e7 febd 4d20 3dbd 9fa0 3e3d f1a4 9c3d
00000290: a69a 7abd b387 d6bd a0a8 ecbb d33a f5bd
000002a0: 3a36 c1bd 9fc1 11bc 91e5 93bc 7c02 6abd
000002b0: 42bd f2bc 2f04 623c e5dc fd3b ee91 3fbd
000002c0: 5cb6 8dbd c6cb 623d 4529 d33b 01df 2bbd
000002d0: a7c7 d93d f85c a33d 0d36 c6bc 0e9a 0dbe
000002e0: abc0 64bd 5e85 b8bd 1c20 473d 8dcf 073d
000002f0: 5594 0cbd ffb6 8f3d 1464 f23c 7a46 2e39
00000300: 6f20 7f3d 4841 a9bb 2cfe ddbd e630 57bd
00000310: 1af8 b53d 457f d1bc c5e3 69bd 9989 64bd
00000320: a3fa 09be f955 673d d63b 12be f4c4 363d
00000330: eed2 1ebe e45a 203c 3b6f c6bc d15c 8f3c
00000340: dd36 593d a121 0cbe f799 97bc 3b0f b7bd
00000350: 531c a93c 6253 b63c 25c8 efbb d388 06be
00000360: 30bd c33b f8be 483d 2019 d6bc 92eb 68bd
00000370: 29fd 943c 1e43 b3bd 9667 27bc 090c 36bd
00000380: b617 6ebc feca 8c3d 6771 a9bd 181c 17bd
00000390: 49c9 c23b 23af ca3d e41a ecbc fce1 d7ba
000003a0: 9afd 21bd e7a1 12bc fa1c 19bc ac2e b6bd
000003b0: 6d0a 61bd 5c5b 293d c12d 62bd fbf2 593d
000003c0: 4b1c 29bb b3e9 87bd 5573 b93b 164c 63bd
000003d0: d63c 4cbd 72a9 14be 2441 23bd a2bf 7dbd
000003e0: d101 b4bd ea88 243d 4ed6 89bd 96be 87bd
000003f0: ef6a 523d 221a 14bd 4e4e e83b 4fb5 98bc

fc2.bias f4 [128]
-0.084181 0.052302882 -0.029604942 -0.029833829 -0.0005225891 -0.07073079 0.054473512 -0.064143665
0.003454612 -0.061354794 0.04529073 -0.101870306 0.0009888802 0.062556155 0.05004329 -0.04689153
-0.05886234 -0.018488294 -0.079281606 -0.106529646 0.09606115 0.033690266 0.07822378 -0.101924844
0.011201856 -0.025819194 0.016303191 -0.012054581 -0.052833464 0.0018461351 0.008413687 -0.04656933
0.028962862 0.032979257 0.058927797 -0.082012974 0.010646251 -0.05752523 -0.007599915 0.029888552
0.036545318 -0.009443359 -0.005539745 -0.015680134 -0.034462526 -0.07694582 0.0039418694 -0.10590565
-0.023752896 -0.044090744 -0.0011658497 -0.028876144 0.06621985 0.035417754 0.021305302 -0.035631146
0.02277758 -0.18080458 -0.03159497 0.06587916 0.022410886 0.09326256 -0.029617801 -0.0096049355
-0.08049753 0.061896734 0.09721332 -0.08662532 0.022813661 -0.044065613 -0.007819762 0.031533204
0.03126268 0.06425464 -0.15080512 -0.078153774 -0.022411384 0.006705195 -0.039067686 0.04611439
0.03641171 -0.018583221 -0.12320384 -0.07248174 0.016695226 0.04723583 -0.025647704 -0.0063773305
0.06654753 -0.03945772 0.050743144 0.17018817 -0.018471986 0.029748755 0.03262181 0.087868355
0.041473072 -0.038563445 0.0066889296 -0.032085095 -0.05734767 0.045848068 -0.026833493 0.06672949
-0.026302133 -0.0414517 0.044075117 0.040225428 -0.054550588 -0.061101355 0.14240745 0.07363441
0.07604246 -0.042876795 0.018124068 -0.027710197 -0.016824098 -0.07307071 0.08952224 -0.11828292
-0.03807156 -0.02257428 -0.01959432 0.0096484525 0.05339159 -0.014674084 0.08060202 0.10799701
00000000: 1767 acbd 8c3b 563d 1086 f2bc 1366 f4bc
00000010: 5cfe 08ba 4edb 90bd 9e1f 5f3d c15d 83bd
00000020: c666 623b 2a4f 7bbd c682 393d 61a1 d0bd
00000030: 509d 813a 711d 803d 31fa 4c3d 5511 40bd
00000040: a319 71bd c374 97bc 655e a2bd 372c dabd
00000050: b5bb c43d cefe 093d ca33 a03d f9bd d0bd
00000060: fd87 373c c682 d3bc 458e 853c 9480 45bc
00000070: e767 58bd 04fa f13a 90d9 093c 7bbf 3ebd
00000080: 8643 ed3c 4215 073d 465e 713d 6bf6 a7bd
00000090: 9d6d 2e3c 939f 6bbd b508 f9bb d6d8 f43c
000000a0: 8bb0 153d 52b8 1abc c086 b5bb a073 80bc
000000b0: 9428 0dbd c595 9dbd cc2a 813b 10e5 d8bd
000000c0: 6f95 c2bc 7f98 34bd 6dcf 98ba aa8d ecbc
000000d0: 469e 873d 3512 113d 7588 ae3c f7f1 11bd
000000e0: 0c98 ba3c d624 39be ba69 01bd a7eb 863d
000000f0: 0997 b73c 7100 bf3d 08a1 f2bc 055e 1dbc
00000100: e4db a4bd 6e87 7d3d c717 c73d 9e68 b1bd
00000110: b7e3 ba3c 257e 34bd 761e 00bc f628 013d
00000120: 4c0d 003d f097 833d a86c 1abe 160f a0bd
00000130: 1498 b7bc 41b7 db3b 7005 20bd 71e2 3c3d
00000140: 7224 153d d73b 98bc 4b52 fcbd 4e71 94bd
00000150: 6dc4 883c 5c7a 413d 221b d2bc edf8 d0bb
00000160: 124a 883d 6b9e 21bd 0bd8 4f3d cf45 2e3e
00000170: 9052 97bc a9b3 f33c 729e 053d 53f4 b33d
00000180: abdf 293d b4f4 1dbd cf2e db3b a96b 03bd
00000190: 64e5 6abd 2fcb 3b3d ead1 dbbc 79a9 883d
000001a0: 9277 d7bc 42c9 29bd 1c88 343d 6bc3 243d
000001b0: 7070 5fbd 6a45 7abd 42d3 113e a3cd 963d
000001c0: 26bc 9b3d 949f 2fbd ed78 943c 7f00 e3bc
000001d0: b1d2 89bc 19a6 95bd 7057 b73d 513e f2bd
000001e0: edf0 1bbd b2ed b8bc 4484 a0bc 8b14 1e3c
000001f0: 24b1 5a3d 926b 70bc ac12 a53d 892d dd3d

fc3.weight f4 [64, 128]
-0.029964747 -0.15669547 -0.09672933 0.033344075 -0.16404963 -0.15873067 0.015578106 0.033939052
-0.12703785 -0.021084504 -0.121204756 -0.03074632 -0.17878495 -0.03503787 0.18234025 0.39025256
0.028744576 0.4220846 0.03838243 -0.046125375 -0.20974365 0.33191267 0.060097788 0.08920262
-0.098395415 0.07196384 0.04974339 0.010601211 0.054549485 0.00442706 -0.14812344 -0.2699963
-0.25412032 -0.10254333 -0.11455087 0.34341785 0.32584447 0.023770206 -0.09697005 0.030301219
0.0211607 -0.025462342 0.26064157 -0.052972008 -0.28823534 -0.048397068 0.045389116 -0.17028065
0.24458013 0.056496397 -0.04373459 -0.033122342 0.14626417 0.18007192 -0.002951678 -0.24959788
-0.046164535 -0.06468974 0.057535756 0.041008588 -0.087002695 -0.11783818 -0.17506614 0.1900087
0.4177372 -0.1913208 -0.07728137 -0.027920911 0.20092437 0.21421123 -0.24539284 0.007236979
0.08574277 0.029062744 -0.023854151 -0.09075646 0.08227547 -0.04919511 -0.08258499 -0.064654626
0.31214485 0.23912352 0.5238153 0.08637439 0.17948954 0.11694093 0.4288811 0.114688165
0.0575284 -0.05184902 0.10187706 0.032307457 -0.039198346 -0.15162 0.33118513 -0.044432748
0.12679091 0.03374817 0.003598458 -0.13845293 0.018217001 -0.05781236 -0.08546362 -0.17997268
0.11921282 0.15437947 0.020272216 -0.21454969 0.37325612 0.00666001 -0.048944354 0.16718294
0.060122255 0.069924034 -0.007812553 0.027544506 0.08650654 0.452101 -0.16559176 -0.12720843
0.037353676 0.09303097 0.3387889 -0.006325117 0.055050027 0.036901787 -0.294645 -0.15936336
0.06211995 -0.31692216 -0.08618895 -0.05553419 0.018643923 -0.1274249 0.034303054 -0.080657646
0.22423694 0.15005457 0.15024158 0.07395311 0.050608788 0.026527967 0.20572937 0.24634467
-0.019535825 -0.22810602 -0.05741095 -0.052031517 -0.041920204 0.2023909 0.13296166 -0.16650304
0.028022561 -0.03664439 0.052419476 -0.041854512 0.066506796 0.06373067 -0.039576888 0.14724629
0.17195779 0.06455825 -0.277809 0.15643767 0.26423356 0.029070621 -0.041922376 -0.29731876
0.27328753 0.120912395 0.41278636 0.039826885 -0.10795293 0.008667237 -0.06102098 0.25330693
0.055017818 0.02806043 0.08018183 0.04094244 -0.060934637 0.30891365 -0.01728895 0.045907106
-0.05559892 -0.0266512 0.00992432 -0.1353969 0.063836746 0.09814254 -0.21676034 0.03995872
-0.25190064 -0.16372962 0.043764662 -0.020518573 0.0034625905 0.054546557 0.047581475 0.007821511
-0.48734516 -0.12862973 0.09715949 0.00017080571 0.065246694 0.34617162 -0.022948125 -0.2164139
0.51409554 0.14121337 -0.11420597 0.18474448 0.14085443 -0.01974318 -0.050874785 0.063405156
-0.030448407 0.3741248 0.10451321 -0.0627741 -0.024651635 -0.10038625 -0.484349 -0.013889095
-0.088934384 0.06397398 0.06372687 -0.051701367 -0.1368324 -0.10562239 0.12115859 0.30210078
0.12873639 0.123879835 -0.14570247 0.13801473 -0.31446004 0.09703506 0.07233144 -0.2776318
0.14175448 -0.13425662 0.026047641 -0.004293212 0.108807355 0.17069179 -0.025577532 -0.21581462
-0.15616904 -0.17702515 -0.19553119 -0.0036844118 -0.39971787 -0.5356442 -0.0027057906 -0.42750925
00000000: a178 f5bc c774 20be 071a c6bd cc93 083d
00000010: a0fc 27be 4b8a 22be 503b 7f3c ad03 0b3d
00000020: 3616 02be 69b9 acbc 333a f8bd b5df fbbc
00000030: 6713 37be df83 0fbd 67b7 3a3e 2fcf c73e
00000040: bf79 eb3c 791b d83e e536 1d3d f6ed 3cbd
00000050: 0ac7 56be 75f0 a93e 1929 763d ddaf b63d
00000060: 8983 c9bd c761 933d babf 4b3d b4b0 2d3c
00000070: 486f 5f3d df10 913b acad 17be f43c 8abe
00000080: 0f1c 82be 3d02 d2bd a699 eabd 77d4 af3e
00000090: 16d5 a63e bcb9 c23c 3c98 c6bd 433a f83c
000000a0: 3459 ad3c 6796 d0bc d072 853e 2df9 58bd
000000b0: 9593 93be 013c 46bd f0e9 393d 0d5e 2ebe
000000c0: 3773 7a3e c468 673d 0b23 33bd 4bab 07bd
000000d0: 46c6 153e c664 383e f070 41bb 9696 7fbe
000000e0: 0617 3dbd 0e7c 84bd 9daa 6b3d 9ff8 273d
000000f0: 782e b2bd 2555 f1bd 8a44 33be a491 423e
00000100: a6e1 d53e 9ae9 43be b245 9ebd 65ba e4bc
00000110: 1ebf 4d3e 305a 5b3e 4348 7bbe 2e24 ed3b
00000120: e899 af3d fe14 ee3c c869 c3bc 86de b9bd
00000130: 0b80 a83d d080 49bd 5222 a9bd a569 84bd
00000140: 73d1 9f3e ccdc 743e c218 063f 0ee5 b03d
00000150: 1bcc 373e ba7e ef3d 4e96 db3e a1e1 ea3d
00000160: e6a2 6b3d a35f 54bd eca4 d03d d354 043d
00000170: 728e 20bd 4642 1bbe 1991 a93e 1dff 35bd
00000180: 7ad5 013e 853b 0a3d 1bd4 6b3b 9bc6 0dbe
00000190: d23b 953c a7cc 6cbd 8d07 afbd c24a 38be
000001a0: da25 f43d a715 1e3e eb11 a63c eab2 5bbe
000001b0: 6d1b bf3e 373c da3b e079 48bd 0132 2b3e
000001c0: c142 763d 5534 8f3d 3900 00bc 04a5 e13c
000001d0: 572a b13d c879 e73e e390 29be ed42 02be
000001e0: 2b00 193d 0587 be3d bd75 ad3e ed42 cfbb
000001f0: 237c 613d 5426 173d b6db 96be 2630 23be
00000200: 7d71 7e3d 9f43 a2be d583 b0bd d277 63bd
00000210: 24bb 983c ac7b 02be 5c81 0c3d d62f a5bd
00000220: 5e9e 653e e8a7 193e eed8 193e ba74 973d
00000230: 294b 4f3d 2e51 d93c b8aa 523e c741 7c3e
00000240: 9809 a0bc a094 69be bf27 6bbd 001f 55bd
00000250: 85b4 2bbd 8f3f 4f3e 1a27 083e c67f 2abe
00000260: 928f e53c 6e18 16bd ceb5 563d a36f 2bbd
00000270: b734 883d 3a85 823d 601b 22bd bbc7 163e
00000280: b415 303e 1e37 843d fb3c 8ebe 3231 203e
00000290: 9f49 873e 8325 ee3c ccb6 2bbd 2a3a 98be
000002a0: 58ec 8b3e eba0 f73d bc58 d33e 8421 233d
000002b0: 6d16 ddbd 0701 0e3c 23f1 79bd 72b1 813e
000002c0: 5d5a 613d fdde e53c 5f36 a43d 43b3 273d
000002d0: 9996 79bd ee29 9e3e 8ea1 8dbc 1709 3c3d
000002e0: b1bb 63bd 9e53 dabc 9d99 223c 7ca5 0abe
000002f0: d7bc 823d f5fe c83d 6cf6 5dbe c1ab 233d
00000300: 1ff9 80be bda8 27be 9342 333d 9116 a8bc
00000310: a1ec 623b 366c 5f3d cbe4 423d cb25 003c
00000320: 4e85 f9be 83b7 03be 8efb c63d 4f1a 3339
00000330: 0fa0 853d 683d b13e b5fd bbbc 9b9b 5dbe
00000340: c49b 033f 3d9a 103e d2e4 e9bd a82d 3d3e
00000350: 253c 103e 73bc a1bc 1462 50bd 90da 813d
00000360: f06e f9bc 498d bf3e 060b d63d b58f 80bd
00000370: 3af2 c9bc 4e97 cdbd 98fc f7be 168f 63bc
00000380: 3b23 b6bd ca04 833d 3c83 823d d0c4 53bd
00000390: cb1d 0cbe 8d50 d8bd ff21 f83d f4ac 9a3e
000003a0: 79d3 033e b6b4 fd3d 0733 15be bc53 0d3e
000003b0: e800 a1be 51ba c63d 8222 943d c125 8ebe
000003c0: 1628 113e 917a 09be dd61 d53c 13ae 8cbb
000003d0: 64d6 de3d d4c9 2e3e f987 d1bc 82fe 5cbe
000003e0: c7ea 1fbe 1546 35be 5439 48be 2c76 71bb
000003f0: d2a7 ccbe fa1f 09bf a253 31bb 7ee2 dabe

fc3.bias f4 [64]
-0.12631257 0.28748694 0.12243617 -0.07024894 0.055174023 0.46193185 -0.109515265 0.00011463484
0.10340721 -0.018071033 0.37149242 -0.022183381 0.16063854 0.0027183932 0.092851244 0.23048727
-0.055478774 0.036672316 -0.017567571 0.23782331 0.06646033 0.4049062 -0.1064371 -0.10303949
-0.045094986 -0.024457777 0.48209995 0.17776787 0.019944143 -0.07301797 0.26280063 0.09649535
0.013212255 -0.08957314 0.08748617 0.0044460488 0.14637376 0.09492295 -0.13828252 0.3619471
0.34893256 0.043685157 -0.063699074 0.23473641 -0.06850583 0.006872048 -0.051124297 0.058171414
-0.027189327 -0.09180709 0.035354566 -0.19972639 -0.057421003 -0.11635709 0.033310935 -0.052884348
0.34918275 -0.016859138 0.026165027 -0.034340225 -0.031835735 0.459829 0.14533025 -0.071037784
00000000: 1558 01be 7d31 933e d1bf fa3d adde 8fbd
00000010: 28fe 613d 5582 ec3e 8a49 e0bd 1c68 f038
00000020: 29c7 d33d b409 94bc 4134 be3e ecb9 b5bc
00000030: 6e7e 243e 1227 323b cb28 be3d db04 6c3e
00000040: b63d 63bd b635 163d dee9 8fbc f487 733e
00000050: 5a1c 883d de4f cf3e b2fb d9bd 5e06 d3bd
00000060: 85b5 38bd ad5b c8bc ced5 f63e c808 363e
00000070: e661 a33c 728a 95bd ce8d 863e 5b9f c53d
00000080: 3778 583c 1f72 b7bd f32b b33d 29b0 913b
00000090: 01e3 153e f766 c23d ef99 0dbe 2151 b93e
000000a0: 4aa7 b23e 35ef 323d a974 82bd be5e 703e
000000b0: c94c 8cbd eb2e e13b b667 51bd 2645 6e3d
000000c0: 27bc debc 5b05 bcbd f3cf 103d 1385 4cbe
000000d0: 4932 6bbd a04c eebd 0c71 083d 429d 58bd
000000e0: 15c8 b23e 2d1c 8abc 0a58 d63c 56a8 0cbd
000000f0: 3066 02bd b56e eb3e 74d1 143e 427c 91bd

logits.weight f4 [4, 64]
-0.28319576 0.085797705 0.15845975 0.017594919 0.16975465 0.19468419 -0.41749683 0.36372203
0.033225875 0.0071137133 0.13212702 -0.38817424 0.39005074 -0.059006166 0.2384153 0.0797531
-0.4757882 -0.02166655 0.097466365 0.41623837 0.016843084 0.17703025 -0.016264595 -0.14824848
-0.2566989 0.29201123 0.13069263 -0.20720713 0.36497685 -0.29133338 0.23332502 -0.50573593
-0.2823836 -0.09587211 -0.035504073 -0.058143448 0.11903455 0.089203894 -0.08193574 0.20106125
0.219228 -0.17680587 0.07782312 0.08671588 0.04497557 0.28511444 -0.06694814 -0.5957959
0.04959264 -0.08591811 0.11733889 -0.20967273 -0.34209675 0.1111929 0.36779332 -0.28123745
0.046075128 0.15959798 0.10764457 -0.02754637 0.33724645 0.21313868 0.123961486 -0.31609294
-0.2979746 0.22484201 0.015910888 -0.5177831 -0.11212833 0.17097779 0.21549532 0.5518265
-0.3501116 -0.44158623 0.13217202 -0.088339314 0.45202065 0.49367812 0.29062033 -0.10939591
0.34629586 0.3613152 0.18385178 0.29495227 0.22543061 0.23318402 -0.08365443 -0.023279134
-0.09383434 0.12430286 0.21805233 0.059095647 0.62771827 -0.23798618 -0.006575356 -0.03748672
-0.48366123 -0.4017158 0.43610412 0.015323321 -0.10765889 -0.13037874 -0.058075972 0.023672836
0.23714907 0.670073 -0.6469545 0.22293724 -0.16699527 0.18301265 -0.15026234 0.083873086
0.26945585 0.06452459 0.01932069 -0.17433724 0.22215088 -0.03816803 0.1373587 -0.5109219
0.26230472 0.23374566 0.103320174 0.17523487 -0.46271953 0.09626486 0.17088997 -0.12790413
0.02221487 0.14431478 0.31539586 -0.8987321 -0.09308073 0.23633698 0.25313982 -0.2578098
0.38419813 -0.04407813 0.17109425 -0.45469794 0.30174252 0.2023947 0.014571453 0.19146207
-0.3205098 -0.024805423 0.60278165 0.33872184 0.07756939 0.06024672 0.03222442 -0.50962263
-0.114513375 -0.03970291 0.2523216 0.2642147 -0.2832933 -0.4010887 0.053929985 -0.20531607
-0.15972869 -0.64787555 -0.3403646 0.27667993 0.035673063 0.06574587 0.109455794 0.092256635
0.15092522 0.3704255 -0.57971966 0.093252085 -0.26685548 0.33236006 -0.49620768 0.13023235
-0.5652368 -0.05425316 0.20239118 -0.21964496 -0.39221445 -0.09659922 0.17654091 -0.8025319
0.19392793 0.33464196 -0.020108763 0.35946897 -0.19043551 0.10574157 -0.060132124 -0.57738096
-0.17776576 0.24806584 -0.33894876 0.22725846 0.47098765 0.12513846 0.030242926 -0.36495858
-0.1558587 0.083673805 0.10709227 -0.3976479 0.1281127 -0.19872399 0.43407205 0.19944462
0.07633456 0.71622074 -0.18722124 0.25009668 0.26064125 0.22115661 0.07487209 -0.31542516
-0.4069693 -0.5498922 0.21470284 0.0928733 0.30004668 -0.14569823 0.044342455 0.15972799
0.13205503 -0.19859706 0.4714749 -0.01036637 -0.0316073 0.23365332 -0.16353542 0.048023097
-0.07208543 -0.49447006 0.2466848 -0.03786087 0.3197275 -0.26915586 -0.23289962 -0.32057652
0.10043688 -0.025658289 0.23384929 -0.33094475 -0.12232261 -0.051238116 0.47899947 0.4571548
0.21298341 0.28770342 -0.20251133 0.016762365 0.069084644 0.25635916 0.22458573 -0.017986454
00000000: 09ff 90be b5b6 af3d 4643 223e 3823 903c
00000010: 2ad4 2d3e 4b5b 473e 25c2 d5be c639 ba3e
00000020: db17 083d 271a e93b 4e4c 073e c6be c6be
00000030: bbb4 c73e 73b0 71bd 2423 743e 9855 a33d
00000040: 839a f3be 0c7e b1bc 729c c73d 321d d53e
00000050: 82fa 893c 6b47 353e 543d 85bc 73ce 17be
00000060: 0a6e 83be 7f82 953e 4ad4 053e 1b2e 54be
00000070: 3fde ba3e a629 95be c1ec 6e3e e977 01bf
00000080: 9594 90be 9958 c4bd b86c 11bd d327 6ebd
00000090: 63c8 f33d 88b0 b63d edcd a7bd 00e3 4d3e
000000a0: 4e7d 603e 990c 35be ba61 9f3d 1898 b13d
000000b0: 4e38 383d 85fa 913e 1b1c 89bd 1586 18bf
000000c0: a721 4b3d d6f5 afbd 5f4f f03d 73b4 56be
000000d0: 4e27 afbe 1ab9 e33d 684f bc3e 5bfe 8fbe
000000e0: 46b9 3c3d a76d 233e c274 dc3d eda8 e1bc
000000f0: 91ab ac3e 0741 5a3e 85df fd3d efd6 a1be
00000100: 2090 98be fc3c 663e 8d57 823c 6f8d 04bf
00000110: 8aa3 e5bd cd14 2f3e ceaa 5c3e 8044 0d3f
00000120: d441 b3be 9717 e2be 1a58 073e 3eeb b4bd
00000130: 406f e73e 61c3 fc3e 30cc 943e f60a e0bd
00000140: b14d b13e 4efe b83e a443 3c3e fc03 973e
00000150: 48d7 663e cbc7 6e3e 0453 abbd e2b3 bebc
00000160: 382c c0bd 7f92 fe3d 1c49 5f3e 470e 723d
00000170: 25b2 203f a6b2 73be 1576 d7bb ad8b 19bd
00000180: 72a2 f7be b1ad cdbe 0a49 df3e ab0e 7b3c
00000190: 447c dcbd 0182 05be 12e1 6dbd 89ed c13c
000001a0: 35d7 723e e789 2b3f cf9e 25bf a949 643e
000001b0: cf00 2bbe ab67 3b3e 5fde 19be a7c5 ab3d
000001c0: 1ef6 893e 7825 843d 6c46 9e3c 7685 32be
000001d0: 857b 633e 1556 1cbd c2a7 0c3e c7cb 02bf
000001e0: ce4c 863e 065b 6f3e 8799 d33d c570 333e
000001f0: 93e9 ecbe 8326 c53d c8fd 2e3e 4df9 02be
00000200: f6fb b53c 41c7 133e 917b a13e 4f13 66bf
00000210: 1ca1 bebd 5202 723e 8b9b 813e a5ff 83be
00000220: 9eb5 c43e 458b 34bd 5533 2f3e 2bce e8be
00000230: ff7d 9a3e 8e40 4f3e 1bbd 6e3c a20e 443e
00000240: dc19 a4be be34 cbbc e64f 1a3f f36c ad3e
00000250: b3dc 9e3d 44c5 763d c1fd 033d a176 02bf
00000260: fd85 eabd 859f 22bd 4c30 813e 2647 873e
00000270: d20b 91be 805b cdbe b0e5 5c3d 603e 52be
00000280: eb8f 23be 2cdb 25bf 4544 aebe fea8 8d3e
00000290: eb1d 123d c5a5 863d 5c2a e03d 0cf1 bc3d
000002a0: 248c 1a3e 69a8 bd3e 8268 14bf f3fa be3d
000002b0: 48a1 88be 192b aa3e ef0e febe a15b 053e
000002c0: 5cb3 10bf 9038 5ebd a23f 4f3e 9cea 60be
000002d0: 55d0 c8be d0d5 c5bd 24c7 343e bb72 4dbf
000002e0: 0b95 463e 3156 ab3e 22bb a4bc 510c b83e
000002f0: 8701 43be 098f d83d 1a4d 76bd 3dcf 13bf
00000300: 3a08 36be f904 7e3e b18a adbe 71b6 683e
00000310: 4b25 f13e 4c24 003e 03c0 f73c dadb babe
00000320: 6c99 1fbe 2c5d ab3d 3153 db3d 8198 cbbe
00000330: fa2f 033e 4d7e 4bbe b13e de3e 363b 4c3e
00000340: 4b55 9c3d 3e5a 373f edb6 3fbe ac0c 803e
00000350: c572 853e e176 623e 8a56 993d 687f a1be
00000360: 485e d0be bcc5 0cbf 10db 5b3e 5b34 be3d
00000370: b89f 993e eb31 15be 6fa0 353d bc8f 233e
00000380: 6f39 073e 075d 4bbe 2865 f13e b5d7 29bc
00000390: a876 01bd d142 6f3e d475 27be deb3 443d
000003a0: 87a1 93bd 2e2b fdbe f19a 7c3e 0014 1bbd
000003b0: 53b3 a33e ccce 89be 3d7d 6ebe 9b22 a4be
000003c0: dab1 cd3d 5531 d2bc 3076 6f3e 9771 a9be
000003d0: 4784 fabd 0fdf 51bd 6b3f f53e 3210 ea3e
000003e0: 5318 5a3e dd4d 933e 215f 4fbe 3a51 893c
000003f0: 407c 8d3d 8241 833e cdf9 653e 5458 93bc

logits.bias f4 [4]
0.23439766 0.26183906 0.13030836 0.24011917
00000000: f105 703e c50f 863e 8e6f 053e cde1 753e
