dqn/exercise/checkpoint.pth (torch_old, 39664 bytes, 6 tensors)

fc1.weight f4 [128, 8]
000000 b6 8c a3 be 7d 2c 4d bd 0e d7 f6 be b1 9b f9 be
       -0.3194329 -0.050091255 -0.4821095 -0.48751596
000010 8c 86 dd be 14 d8 5b 3d ea b3 48 3e f3 25 b8 3e
       -0.43266714 0.053672865 0.19599882 0.35966453
000020 6c bc 03 3f 2c 22 ce 3e 99 d2 c7 bc 77 2a 24 be
       0.51459384 0.40260446 -0.024392413 -0.16031824
000030 8c 96 ff 3d 0f 30 3d bf 03 00 a4 be e6 6d 02 3f
       0.124798864 -0.73901457 -0.3203126 0.5094894
000040 5f 93 2d 3e 31 75 14 bd a9 27 53 3d 16 1f c4 be
       0.16950749 -0.036244575 0.051551495 -0.38304967
000050 0f 4f 27 3f 00 de 38 3f d3 c6 b8 bd 4c d3 f4 3e
       0.6535501 0.72213745 -0.09022298 0.47817457
000060 87 c8 88 be 49 00 06 3f d4 00 c0 bd a4 ff a2 bf
       -0.2671549 0.52344185 -0.09375158 -1.2734265
000070 e0 92 81 bf 60 9e 70 3d 91 28 38 bc e8 95 1a 3e
       -1.0122948 0.05874479 -0.011240141 0.15096247
000080 f9 e9 2e bf 6d ea 3a be db cd 26 bf 48 3a 09 bf
       -0.68325764 -0.18253489 -0.6515786 -0.53604555
000090 67 8a eb be 62 26 3c 3d f9 6a ca 3e 4e ca bf 3e
       -0.4600403 0.045935042 0.3953474 0.37459034
0000a0 70 44 a2 be 6e df 58 bf 9d 00 27 3d 11 78 24 bf
       -0.3169284 -0.84715927 0.04077207 -0.64245707
0000b0 28 e2 f3 be ce 23 d7 3a bb f3 d9 3d 53 22 8e 3e
       -0.4763348 0.0016413869 0.10642191 0.27760562
0000c0 0a 38 aa be ba e4 17 be 9d 99 6c bd f7 a8 cf 3d
       -0.3324588 -0.14833346 -0.057763685 0.10139649
0000d0 79 20 59 be ff 0c 0d 3f 81 b3 91 3e d1 9e c5 be
       -0.21203794 0.55097955 0.28457263 -0.3859773
0000e0 fd 88 86 be 80 c2 84 bf 0d d8 26 bf 5f 26 27 be
       -0.2627639 -1.0371857 -0.6517342 -0.16323231
0000f0 24 f8 31 3f 03 50 9a 3f 66 d7 2f be d7 0b 51 3d
       0.6951926 1.2055668 -0.17172012 0.051036682
000100 d3 14 a7 3d f6 15 b0 bd 18 83 a0 bd f4 b0 51 3a
       0.08158269 -0.08597939 -0.07837504 0.00079990854
000110 71 89 3d 3e 01 d2 6b 3f 68 b2 da 3d 8e c3 18 be
       0.18509461 0.92117316 0.106785595 -0.14918348
000120 c7 bf 29 3d f7 40 07 3f 2f ef a8 3e 67 a6 6d 3f
       0.04144266 0.52833503 0.32994983 0.92832035
000130 31 7f f9 be 56 e8 80 bf 05 bb be 3d 6b 02 70 be
       -0.48729852 -1.0070903 0.09313015 -0.23438422
000140 96 f9 f4 be 6b ac 53 3f ae 7c a2 3e dd 0e 57 bf
       -0.4784667 0.82684964 0.31735748 -0.84007055
000150 8c cf b9 bd f3 ef ca be fd 2f 18 3d 35 94 91 be
       -0.090727895 -0.39636192 0.03715514 -0.28433385
000160 24 bc 12 be 59 ad 0d bf 4a 65 9a be 0c 6e 5d 3e
       -0.14329582 -0.5534263 -0.30155402 0.21624011
000170 ab 5e 0c 3f a7 d0 bc 3e 48 b9 81 bf 13 c4 67 bf
       0.5483195 0.3687794 -1.0134668 -0.9053356
000180 48 c1 9a 3e 80 9f f6 3d ef 41 d4 be a1 8a 0d bf
       0.30225587 0.12042141 -0.41456553 -0.55289656
000190 05 1e 09 40 80 9c 60 3e ee ab 0e bf 8c 01 32 3e
       2.1424572 0.219347 -0.55731094 0.17383403
0001a0 08 12 58 bf 8a c8 c3 be 76 f6 41 bf 73 5e e0 be
       -0.84402514 -0.38238937 -0.75766695 -0.4382206
0001b0 3f ca 88 be 87 b5 ef 3d 15 9f 17 bc 41 59 41 3e
       -0.26716802 0.117045455 -0.009254237 0.18881704
0001c0 d3 15 6b be 38 b2 62 3f 07 ae 16 3d 0c 52 a1 bf
       -0.22957544 0.8855319 0.03678706 -1.2603164
0001d0 59 ad 4a bf 7e 42 62 3d d2 21 e5 3d ce 11 88 3c
       -0.7917076 0.055239193 0.11188091 0.016610052
0001e0 1b 53 b2 3e df 12 47 3e 60 78 2f 3e b0 b1 ca 3e
       0.3482903 0.19440793 0.17135763 0.3958869
0001f0 80 e1 13 bf 25 cf 35 bf aa a8 a9 be 1d eb 33 bf
       -0.5776596 -0.710192 -0.33136493 -0.7028063
000200 7e c9 81 bf ff b5 1a bf 17 38 3a be b6 f6 c5 3e
       -1.0139616 -0.60433954 -0.18185459 0.38664788
000210 c0 59 43 3e 09 b2 c6 3e 8c 90 64 3e d0 3e 9c 3e
       0.19077206 0.38807705 0.22320765 0.30516672
000220 87 97 a1 be ab 10 80 3d e7 f5 83 be b7 38 70 3e
       -0.3156092 0.06253179 -0.25773546 0.23459135
000230 e1 75 8c 3e 0a f3 78 3f bf 8f c3 3e eb ee 0f be
       0.27433684 0.9724585 0.38195607 -0.14055984
000240 f1 ca 4f be 6b be 31 3e d8 58 da 3c 5c 2d 4d be
       -0.2029226 0.17357795 0.026653692 -0.20036834
000250 e5 52 03 3f a9 0a 22 bf 72 f9 28 bf fd a1 40 bc
       0.5129836 -0.63297516 -0.66005623 -0.011757371
000260 c1 88 c0 bd 27 c9 e6 3e ec 8a c2 3e b4 db 8a bf
       -0.09401084 0.45075342 0.37996614 -1.0848298
000270 19 f6 69 3e 16 a8 99 be 57 97 61 3e 28 bd ec bd
       0.22847785 -0.30011052 0.22030388 -0.11559516
000280 c4 3a a6 3e 30 42 f8 bd 6c 19 2b bd 51 48 ef bf
       0.3246671 -0.12121999 -0.04177229 -1.8693944
000290 48 02 38 3f e9 bc 88 3e 38 c8 a0 bd 81 b5 18 3e
       0.7187848 0.26706627 -0.07850689 0.14912988
0002a0 72 80 39 bf a1 bf 2c bf 58 e9 ff be 51 b9 92 be
       -0.72461617 -0.674799 -0.49982715 -0.2865701
0002b0 b3 8f 0c 3f b0 2c fc 3d 28 f2 33 3e 60 13 c0 3e
       0.5490677 0.12313211 0.17572844 0.37514782
0002c0 eb ae 26 bf f2 40 2f bd 73 77 84 3f 48 c7 6d bf
       -0.65110654 -0.042786546 1.0348953 -0.92882204
0002d0 26 c7 e8 bc 92 5e 34 3e 64 e0 bc 3e 3e 8c 97 bb
       -0.028415274 0.176142 0.36889946 -0.0046248725
0002e0 47 c5 c3 3e 2b aa 57 be 64 12 45 bf 1d 44 9e be
       0.38236448 -0.21061008 -0.76981187 -0.3091134
0002f0 7e 86 dd bf 85 6a db 3e a2 ce 02 3f 03 3a b5 3e
       -1.7306669 0.42854705 0.51096547 0.35395822
000300 4a 1f 88 bf 05 fa b9 be 0d 9d 47 bf e8 27 60 bf
       -1.0634549 -0.36323562 -0.77974015 -0.8756089
000310 a1 3b 06 3f 9d a2 12 3e 51 97 24 3d 02 09 aa 3d
       0.52434736 0.14319845 0.04018337 0.08302499
000320 6a 02 82 3e ec 78 b8 3e b5 1f 97 be 98 9a 75 bf
       0.25392467 0.36029756 -0.29516378 -0.95939016
000330 b9 20 52 bf 2b 7d a4 3d fa 16 c9 3d 30 43 c2 3e
       -0.8208118 0.080316864 0.098188356 0.37941885
000340 c2 11 e3 bd d3 30 f0 bd 7d 94 08 bf 73 ef 12 bf
       -0.110873714 -0.117280625 -0.53351575 -0.5739662
000350 98 a8 57 3d 86 5e 82 3e 0f 2a a5 bd 18 02 07 bd
       0.052651018 0.2546274 -0.08064663 -0.03296098
000360 39 31 22 bf 1a 70 a9 bf 02 fc 20 bd 8c 79 66 bf
       -0.6335636 -1.3237336 -0.039302833 -0.90029216
000370 43 4d 23 be 76 bd 0c 3e e4 4c 73 3e 85 23 81 3b
       -0.15947442 0.13744149 0.237598 0.003941002
000380 82 9e c0 be f3 2d a0 be b8 d2 48 bf 92 e6 d6 be
       -0.37620932 -0.31285056 -0.7844653 -0.41972786
000390 c2 8d 8d bf e3 8b e6 be c0 af a9 3d 37 79 fb 3d
       -1.1058886 -0.450286 0.08285475 0.12278979
0003a0 5a 5e 42 3d 43 32 f2 3e 5c ac 0b 3f 89 fa 71 bf
       0.047453262 0.47303972 0.54559875 -0.9452291
0003b0 a2 71 e5 bd 2a 20 2a be 89 4b 64 3d de 8d 3d 3e
       -0.11203314 -0.16613832 0.0557361 0.1851115
0003c0 fa 48 40 be c8 10 37 be fc 04 52 3e d1 32 21 3f
       -0.18777838 -0.17877495 0.20509714 0.62968165
0003d0 33 92 ca be e4 56 40 bf a2 dd a9 3e 4b 99 d2 3d
       -0.39564666 -0.75132585 0.33176905 0.102831446
0003e0 34 43 15 3e b3 b7 ff 3e 44 bc 14 be 2c 30 f2 be
       0.14576417 0.4994484 -0.14524943 -0.47302377
0003f0 80 1d 96 3e a4 4e 68 bd 38 53 84 bf c2 e7 a5 3d
       0.29319382 -0.056715623 -1.0337896 0.08100845

fc1.bias f4 [128]
000000 65 7a 99 be e1 42 25 bf d6 4b 2b be fb 84 96 3e
       -0.29976192 -0.64555174 -0.16728148 0.2939833
000010 96 a0 c5 bd f3 dd 6a be d3 f7 c6 3e a0 74 60 3d
       -0.0964977 -0.2293623 0.3886095 0.054798722
000020 a9 a7 2b 3e 81 eb 82 3e 73 6c d5 3e 2c 94 1e 3f
       0.16763176 0.255703 0.41684303 0.6194484
000030 3e e6 55 be be 96 3a be 10 c0 74 3e 38 59 63 3e
       -0.20888612 -0.18221566 0.23901391 0.22202003
000040 8c fc 0c be a8 d4 73 3e d6 86 32 be 1c ce 70 3e
       -0.13768214 0.2381159 -0.17434248 0.23516124
000050 be 27 de 3e ee dc 40 be 0f da 1a bc 01 7c 15 3e
       0.43389696 -0.18834278 -0.009451403 0.14598085
000060 1f 9f b4 bd ce 16 f5 3e e9 d6 bb bd b5 79 5f be
       -0.088194124 0.4786896 -0.0917185 -0.21823771
000070 36 3a 80 3e b4 be ed 3e e4 18 c6 be ac 11 34 3f
       0.2504441 0.46434557 -0.38690865 0.70339465
000080 02 13 aa 3e 1b 8a b6 3d 10 de 3f 3f 13 5a ab 3e
       0.33217627 0.0891306 0.74948215 0.3346716
000090 80 eb 0a 3b 37 62 9a 3e f5 50 0b 3f aa ce 91 3e
       0.0021197498 0.30153057 0.54420406 0.28477985
0000a0 cb 94 10 be 3f 33 9c be eb 1f 2c 3e d4 42 97 be
       -0.1411926 -0.30507848 0.1680905 -0.29543173
0000b0 e3 d1 da 3e 85 53 63 3e 5e 59 76 3e 75 71 19 3f
       0.42738256 0.22199829 0.24057528 0.59938747
0000c0 8b 0e 5f 3e 4b cb 2c be be 35 95 3e cb 9a 5e bc
       0.21782891 -0.16874425 0.29142565 -0.01358671
0000d0 e1 f1 8a be 5a 17 cc bd ae de c4 3e d8 63 d5 3e
       -0.27137664 -0.099653915 0.3845114 0.41677737
0000e0 f0 3e c0 3e 7b c4 ef bd a2 0f cd bd c1 18 49 be
       0.37548018 -0.117073976 -0.10012747 -0.19638349
0000f0 cd b9 60 bd 88 cc b2 bc 12 ba 9e 3e 5c 00 93 3c
       -0.054864693 -0.021826044 0.31001335 0.017944507
000100 1d 9c bb be a4 e2 29 be 36 9d da 3e 1e 7f d6 3e
       -0.36642542 -0.16590363 0.42698067 0.41893858
000110 71 88 ef 3d fa 61 6a 3e 10 e0 f3 3e 4a 2e f2 bb
       0.11695946 0.22888938 0.47631884 -0.007390772
000120 a3 3c 8c 3d d8 46 55 be db 96 d0 be ea 09 a1 bc
       0.06847503 -0.20827806 -0.40740094 -0.019658048
000130 62 24 c6 be 4b d9 95 be 2f 5b 2d 3e 01 02 01 3d
       -0.38699633 -0.29267344 0.16929315 0.03149605
000140 e7 3c 24 be 12 02 89 be db 72 7d be 91 f3 04 3e
       -0.16038857 -0.26759392 -0.24750845 0.12983538
000150 42 d1 31 3f 60 e7 01 bd 32 8c de be 1a b8 46 be
       0.6945993 -0.031714797 -0.43466336 -0.19406167
000160 5e 07 bb 3d 22 cf 9a bd 03 92 cf be 05 51 97 3e
       0.091322646 -0.07559039 -0.40541086 0.29554
000170 4f 24 2b be 1e 87 8d 3e 77 28 cf be fb fa e7 3d
       -0.1671307 0.2764215 -0.4046056 0.113271676
000180 00 a7 31 be 15 8c 8b be 0a f3 7e be 6e d5 b6 be
       -0.17348862 -0.27255312 -0.248974 -0.3570971
000190 8d 49 b9 be 6d c7 3f bb 9f 05 8f be d9 94 c8 be
       -0.36188927 -0.0029263154 -0.27933976 -0.39176062
0001a0 3b ef 75 3e ef 4a 27 3e d6 a4 91 be 37 8f 21 3e
       0.2401704 0.16337179 -0.28446072 0.15777288
0001b0 5e c8 02 be 52 db 44 3f de 39 fd be e2 88 96 3d
       -0.12771747 0.76897156 -0.49458212 0.07350327
0001c0 ad 16 04 be d6 d3 61 be 91 b1 54 bc 9a 6b c1 be
       -0.12899275 -0.22053465 -0.012981788 -0.37777406
0001d0 7a 31 c1 be b7 37 23 3e cb ca f5 bd 06 94 2f be
       -0.3773306 0.15939222 -0.1200157 -0.1714631
0001e0 d7 1e 0a 3f df 93 cf be f8 0d 1b bf 81 49 13 be
       0.5395331 -0.40542504 -0.6056819 -0.14383508
0001f0 2c 3e a5 bd 58 e9 2c be 27 d3 4e 3e a4 79 7c 3c
       -0.08068499 -0.16885889 0.20197736 0.015409861

fc2.weight f4 [64, 128]
000000 55 ad a5 bd 6e f0 98 bc ef 20 82 3d f5 d7 c8 bd
       -0.08089701 -0.018669333 0.06353938 -0.098068155
000010 a0 9b 3a bd c5 17 6c 3d 3c a7 d3 bc 50 bd f9 3c
       -0.04555857 0.057639856 -0.02583658 0.030485779
000020 1f 99 ba bd 05 ce 42 bd 1d 67 1f bd 67 4e 8c 3d
       -0.09111237 -0.047559757 -0.038916696 0.068508916
000030 72 84 fa 3c a7 bf 90 bd 30 55 0d 3c 9e 37 b2 bc
       0.030580733 -0.07067805 0.008626267 -0.021755036
000040 c4 17 58 bd 22 63 68 bd cc 58 43 bd ab 9f 97 3d
       -0.05275704 -0.056735165 -0.047692105 0.07403501
000050 56 d1 91 bd 98 78 8d bd a7 bc 51 bd 99 8b 0e bc
       -0.07120006 -0.06907767 -0.051205304 -0.008700275
000060 c3 be 92 3c c5 0f 8c bb 32 86 05 bd b5 87 74 bd
       0.017913228 -0.004274341 -0.03259868 -0.059699733
000070 c8 ab f5 bc 49 5c 64 bd ab 6f 72 3d b9 34 b0 bd
       -0.029989138 -0.055752072 0.059188526 -0.08603806
000080 52 37 82 bd be be 9f bd 63 67 f2 bc ee 9f 80 3d
       -0.06358208 -0.07800053 -0.029590314 0.06280504
000090 a9 ab 9e 3d bd 2b bf bd 00 65 a9 bc 72 32 01 3d
       0.07747585 -0.09334514 -0.020678043 0.03154225
0000a0 50 9c 06 3d 63 bf 87 3d bf 88 b7 bc b5 8b 85 bd
       0.032863915 0.06628301 -0.022404073 -0.065207876
0000b0 ec bc 50 3d c6 11 15 bd e9 71 cf 3c 98 9f 0c bd
       0.05096142 -0.036393903 0.025322871 -0.034331888
0000c0 e1 67 ce 3c fa 6b 96 3d ee 4b 81 3d fb 24 b1 bd
       0.025196018 0.07344814 0.063133106 -0.086496316
0000d0 ad ea 8c bd 99 04 2f bd 65 39 9b bd 29 26 a1 3d
       -0.06880698 -0.042728994 -0.075793065 0.078686066
0000e0 87 af 63 bc e6 8f a1 bd d3 a2 73 bd cb e1 6b bd
       -0.013896829 -0.078887746 -0.059481453 -0.05758838
0000f0 c4 64 f5 3c da 44 c1 bd c9 18 b9 bd 6b a8 c0 bd
       0.029955275 -0.094369605 -0.090379305 -0.09407123
000100 d6 e8 93 3c 31 23 cb 3c 40 69 9a bd 9a d6 f3 3b
       0.01805536 0.024797054 -0.07539606 0.007441354
000110 82 60 72 3d fb cf e7 bb 3b f0 ca bc a0 99 67 bc
       0.05917407 -0.0070743538 -0.024772754 -0.014135748
000120 2d b3 f8 bc bd 8f 1d 3d ad 71 88 bd 8d e9 cd 3c
       -0.030358875 0.038467158 -0.06662307 0.02513578
000130 ab 32 37 3d fe 44 74 bd b6 82 55 3d 02 a3 87 3d
       0.044726055 -0.05963611 0.05212661 0.06622888
000140 14 b0 27 bd e4 01 bf bc bd ca eb 3c a5 2a 9a bd
       -0.040939406 -0.023316331 0.028783197 -0.07527665
000150 89 e4 80 3c 8e 78 6e 3c d7 4d 4b 3d db 28 a9 bd
       0.015733974 0.01455511 0.04963478 -0.08259746
000160 42 a6 a2 bd d1 cd 09 3d df 91 9c 3c 97 7c a8 bd
       -0.079418674 0.033643547 0.019112526 -0.082268886
000170 2f be 8c bd 55 63 c6 bd 2a f5 8d bd ea 2f 6c bd
       -0.06872212 -0.09686915 -0.06931527 -0.057662882
000180 60 4a 89 3d 48 2d cd bc 05 b4 36 3d 7e 06 82 3d
       0.06703639 -0.025046006 0.044605274 0.063488945
000190 85 1e 0c 3d b7 76 c3 bd a2 2f 36 3d 54 23 e5 3c
       0.034208793 -0.095441274 0.04447902 0.027970947
0001a0 5f f9 42 3d e6 12 c9 bd 7e fa 0e 3d 74 a8 87 3d
       0.0476011 -0.09818058 0.034906857 0.06623927
0001b0 41 55 c1 bd 64 dd 4d 3b 91 30 8e 3d bf 18 90 bd
       -0.09440089 0.0031412477 0.06942857 -0.0703597
0001c0 3e a1 bb 3c 5d e5 a4 3c 19 b9 36 3b a6 1b 99 3d
       0.022904035 0.0201289 0.0027881323 0.07475977
0001d0 ae 21 80 3d d9 e6 64 3d 00 82 34 bc fa 62 85 3d
       0.06256424 0.055884216 -0.011017323 0.06513019
0001e0 2b 3a d1 bd da 29 5c bd 86 be 20 bd 2a 95 04 bd
       -0.10216173 -0.05375085 -0.039244197 -0.032368816
0001f0 ec 85 7b 3d 23 d4 11 3d e7 57 1f 3d 1a 43 76 3d
       0.061407015 0.0356027 0.03890219 0.060122587
000200 3f 1a 54 bd 23 02 50 bf c1 ee 5e be fd c1 b9 be
       -0.051782843 -0.8125326 -0.21770765 -0.36280814
000210 63 0c 8d 3d 68 4d c3 bd af a2 e7 3d c0 7f 5e 3d
       0.06887128 -0.095362484 0.11310326 0.05432105
000220 70 b7 a1 be 6a 2d 13 3f 35 ed 20 bf 53 b0 95 3c
       -0.31585264 0.5749117 -0.6286195 0.018272555
000230 94 95 e1 3e 58 d6 84 bd 64 af 5b bf 84 3f 1d 3f
       0.44059432 -0.06486195 -0.858145 0.6142504
000240 72 9d a8 be 10 96 0f be fa e2 12 3f df e4 fc be
       -0.3293262 -0.14022088 0.5737759 -0.49393365
000250 3b 61 84 bd b0 83 cb bc a8 5b 3e 3e e8 b5 91 3e
       -0.06463858 -0.024843067 0.18589652 0.28459096
000260 9c 47 03 bf 8e f0 10 3e a0 33 c6 bd ff 26 e7 be
       -0.5128114 0.14154264 -0.096778154 -0.4514694
000270 fa 0c a7 3d 3e f3 93 be 68 64 8b be 91 b5 17 3f
       0.08156772 -0.28896517 -0.2722504 0.59261423
000280 76 ce 78 3e 9d 6d f5 3e 64 6d 6e 3e a8 21 0b 3f
       0.24297509 0.4793519 0.23283917 0.5434823
000290 ab 5d 80 3f d6 d4 9b 3d 40 d0 24 3f 53 23 83 3f
       1.0028585 0.076089546 0.64380264 1.0245155
0002a0 42 87 47 bd be ba 94 bd c0 2a ed bc b6 aa b7 3d
       -0.048712976 -0.07262181 -0.028951049 0.089681074
0002b0 8e 33 14 3f ff 61 10 3b 8d 7f f8 bd 8b ac 3a 3e
       0.57891166 0.0022031066 -0.121337034 0.18229882
0002c0 f0 74 d6 bd 81 32 cd bd 74 2d b9 3e 72 da 15 3d
       -0.10471523 -0.100193985 0.3616749 0.03658528
0002d0 36 8c 02 bf 08 f9 d6 3b ee 34 c5 3d b9 73 a4 3e
       -0.50995195 0.0065604486 0.09629236 0.3211954
0002e0 83 2b 74 3e 82 30 bc bf bd 7a 01 3e 75 dc a4 be
       0.23844723 -1.4702303 0.12644477 -0.32199445
0002f0 4e 60 bb 3b 04 5b 06 3e 40 7f c3 3e 4d 5a 4a 3e
       0.0057182675 0.13120657 0.38183022 0.1976101
000300 d4 75 0a 3e eb 47 24 be c2 b0 52 3f f3 05 60 3e
       0.1352151 -0.1604306 0.8230096 0.2187727
000310 bf e8 ad be 4a 1f 7c 3e 8d 8d 9b 3e bb 41 c9 3e
       -0.33966634 0.24621311 0.30381432 0.3930796
000320 50 a4 34 3e b8 b4 b1 bd ea 74 0a be fc 45 c9 3d
       0.17640805 -0.086770475 -0.13521162 0.098278016
000330 e7 28 98 3d 79 5f 33 bf fa 7d 63 3e 6b ee ab bc
       0.074296765 -0.70067555 0.22216025 -0.02098771
000340 0a da 0c 3d e8 34 0d be bb 2f c4 3d b3 ee 9f 3d
       0.034387626 -0.13789713 0.09579416 0.078092
000350 4d 01 61 3f 5c 68 21 bf 51 30 4f bf 24 b2 26 bf
       0.8789261 -0.63049865 -0.809331 -0.6511557
000360 e2 10 11 bf bc 43 57 3e 5a c2 86 be 36 4d dd 3e
       -0.56666386 0.21021932 -0.26320153 0.4322297
000370 03 00 a7 bd c2 70 d2 bf fd 87 40 bf 29 cc 22 3f
       -0.08154299 -1.6440661 -0.752075 0.63592774
000380 33 f1 32 3d 2b f6 df be 9e b9 fb be 05 a7 5b be
       0.043687057 -0.437425 -0.49165052 -0.21450432
000390 07 07 b8 be eb 86 22 3e 32 c1 93 3e a4 b8 9f be
       -0.3594286 0.1587178 0.28858334 -0.31195557
0003a0 9d f8 0c 3f 76 a7 60 3f a1 d0 85 bf 64 af a5 be
       0.55066854 0.87755525 -1.0454293 -0.32360375
0003b0 20 7d f6 be 2c dc 78 bd e6 b2 52 bf ca 2b 09 3f
       -0.48142338 -0.060756847 -0.8230423 0.5358244
0003c0 b7 16 ed bd 82 2c 17 3e c5 c6 a2 bd 65 f7 38 3e
       -0.11576598 0.14763072 -0.079480685 0.18063124
0003d0 56 c3 3d 3e 2f 7a be bd fa 87 5a 3f b1 85 d7 bd
       0.18531546 -0.093006484 0.85363734 -0.105235465
0003e0 d4 91 1c bf 0c a9 44 be 02 bf f8 be 40 6c 04 3e
       -0.61160016 -0.19205111 -0.48583227 0.12931919
0003f0 c3 97 35 bf 2a a2 00 bf 85 e4 01 3f 1a 6c 26 3f
       -0.70934695 -0.5024744 0.5073932 0.650087

fc2.bias f4 [64]
000000 b5 e4 50 3d 8b 1a d4 3e 81 ce a7 bd 54 1d d9 bd
       0.050999362 0.414265 -0.08193684 -0.10601297
000010 40 03 90 bd 16 9a 72 be d4 b9 26 be fd b1 80 bd
       -0.0703187 -0.23691592 -0.16281825 -0.062839486
000020 39 5f 05 bd ea f4 3d 3c b7 0a d6 3e d2 93 e5 3b
       -0.032561515 0.011594037 0.4180505 0.007006147
000030 04 8a 01 3f d2 f2 57 ba 6f 89 70 bd 42 1a 20 3e
       0.5060122 -0.0008237782 -0.058724817 0.15635017
000040 f4 76 ea be 34 a0 96 3e e8 db d5 3e a8 cd c3 bd
       -0.4579388 0.294191 0.41769338 -0.0956071
000050 62 9c 05 bd ed 04 15 3d 17 1f e1 bc b2 ef 80 3e
       -0.03261984 0.03638165 -0.027480645 0.25182873
000060 e2 1d 30 be 96 58 c7 3d 80 95 83 3d f4 f3 3d 3e
       -0.171989 0.09733693 0.06424999 0.18550092
000070 32 bd 92 be c5 9e ad 3e ac 8d e7 bc e6 29 f8 3b
       -0.2865997 0.33910194 -0.028265797 0.007573354
000080 09 85 54 3f 3f d5 08 3e 25 34 e0 bd ee 31 fe 3e
       0.83015496 0.13362597 -0.10947446 0.49647468
000090 0e e0 d3 be 8f 61 0b be 6e a6 16 be 7d 8b 48 bd
       -0.41381878 -0.13611434 -0.14711925 -0.04896115
0000a0 47 10 58 be 43 63 ec bd 9a 6f 05 be 65 a8 e1 3e
       -0.2109996 -0.1154237 -0.13030854 0.44073787
0000b0 d0 11 b3 bd 7c 03 31 be 62 d9 e6 3e 52 33 2b bd
       -0.08743632 -0.17286485 0.45087725 -0.04179699
0000c0 2e cf 15 3e 88 f7 c3 bd b2 f0 b8 3e 3d 45 60 bd
       0.14629814 -0.09568697 0.36121136 -0.05475353
0000d0 5f 54 bd 3c 69 c5 66 be 11 af d4 bd ce 5c 96 bd
       0.02311152 -0.22536243 -0.10384954 -0.0734192
0000e0 ee c9 f3 3e d2 47 f2 3d 1a 24 08 3f a4 dc 20 3f
       0.47614998 0.11830105 0.53180087 0.6283667
0000f0 bf 41 5c 3d 15 29 02 3d 38 b3 3b bd 0a d1 dc 3e
       0.053773638 0.03177746 -0.045825213 0.43128234

logits.weight f4 [4, 64]
000000 ef 65 9d 3d 03 db 37 3f ee 80 bc be a4 64 a0 be
       0.07685458 0.7181856 -0.36817116 -0.31326783
000010 63 12 c5 be e8 8f 9e be c6 92 ca be 58 82 43 bd
       -0.3849059 -0.30969167 -0.39565104 -0.047731727
000020 cd 3f 50 be bb 1e 09 be fe 20 8f bf f3 4f 94 be
       -0.20336838 -0.13390629 -1.1181943 -0.28967246
000030 4a 30 90 3f 00 dd 0d bf 72 eb da be 08 68 fd be
       1.1264737 -0.55415344 -0.42757756 -0.49493432
000040 42 94 d6 be 1c 40 c2 3f a5 85 ce be 4b b5 a4 be
       -0.41909987 1.5175815 -0.40336338 -0.32169566
000050 af 6f d2 be 87 57 a3 be 4d ce c2 3d a3 7f 0c 3f
       -0.41100833 -0.31902716 0.09512005 0.5488226
000060 0a e7 75 be ae a7 28 bc 2d 89 e3 be 33 68 99 be
       -0.24013916 -0.010293884 -0.44440594 -0.2996231
000070 be 3c 9d be 71 c4 0f be 0d 9e 8d 3d e3 a4 3d bf
       -0.30710405 -0.1403978 0.069149114 -0.7407972
000080 0c 02 e9 3f dc b7 24 bf 95 85 d5 bc 94 50 17 40
       1.820375 -0.6434305 -0.026064673 2.364293
000090 99 02 ed be 94 1f 2b be 8e 90 98 be d4 d6 19 3c
       -0.46291044 -0.16711265 -0.29797786 0.009389598
0000a0 f9 15 80 be 99 b6 4f be c7 67 1a 3f 6d 95 df 3f
       -0.25016764 -0.20284499 0.603146 1.7467476
0000b0 33 63 e6 bd 26 76 8f 3f 63 3d 8b 3f 65 a4 e9 3c
       -0.112493895 1.1207931 1.0878109 0.028520772
0000c0 f0 34 97 3f 0d d5 47 be ef 84 a2 3f 4f 27 c1 be
       1.181303 -0.19514866 1.2696818 -0.37725303
0000d0 76 aa b3 be 5f b5 66 be c3 e3 c5 be a7 37 5a be
       -0.3509099 -0.22530125 -0.3865033 -0.21310292
0000e0 ef 38 cc bf b9 5c f5 be 7d c1 3b 3f 30 14 f5 3f
       -1.5954875 -0.47922304 0.73342115 1.9146786
0000f0 3d 35 57 bf 64 6d 19 bf 71 29 d1 3d a3 37 82 3f
       -0.8406561 -0.5993254 0.102129824 1.0173229
000100 68 af 44 3d 33 0f 1e 3f 46 c9 89 be e3 1b c0 be
       0.048018843 0.6174194 -0.26911372 -0.37521276
000110 5e 5f 89 be c0 96 80 be 0b de ce be c0 b7 93 bc
       -0.26830572 -0.25115013 -0.4040378 -0.018031955
000120 69 52 d7 be 5b 6e cc be 1b 12 df be 76 f3 40 be
       -0.4205506 -0.39927945 -0.435685 -0.18842873
000130 21 72 79 3f 0c b0 99 bf ba 8e 46 bf 19 ca 66 be
       0.9743977 -1.200685 -0.77561533 -0.22538032
000140 ff fc a0 3e 60 f3 ba 3f cc 4b e8 be 0e a6 e9 be
       0.3144302 1.4605522 -0.45370328 -0.45634502
000150 46 e0 7a be 9b 4f 96 be 23 d7 41 3d 3c c5 d8 3e
       -0.24499616 -0.2935761 0.04732431 0.42337978
000160 61 df b8 be ed 63 2a be 8d a9 ca bd 90 de fd be
       -0.36107925 -0.16639681 -0.098956205 -0.49583864
000170 7d 37 ad bd e1 3f 3a 3d 9d 5e d2 3d 06 95 0c bf
       -0.08457849 0.045471076 0.10271952 -0.5491489
000180 d7 72 e2 3f e3 13 f9 be d2 d1 14 3c e8 dc 21 40
       1.7691296 -0.48647985 0.009083228 2.529108
000190 71 35 d9 be 01 b5 8d be e9 fc c7 be 19 4e c0 3d
       -0.42423585 -0.27677158 -0.39060143 0.09389896
0001a0 53 f5 a0 be 81 48 98 be 43 c3 7c 3f 1c ab de 3f
       -0.31437168 -0.29742816 0.98735446 1.7395968
0001b0 98 b0 94 bc 4f ed a2 3f 34 4e 72 3f a0 ef 56 bd
       -0.018150613 1.2728671 0.9465058 -0.052474618
0001c0 81 9e 89 3f db a2 3d be 5c c5 86 3f e3 8d 07 be
       1.0751497 -0.18519156 1.0528979 -0.13237719
0001d0 3b 9f fd be 78 74 c0 be f8 2d 94 be 8c 31 b0 be
       -0.49535546 -0.3758886 -0.2894132 -0.344128
0001e0 0e b9 ae bf 51 39 56 bf 14 a1 5c 3f 18 81 04 40
       -1.3650224 -0.8368121 0.86183286 2.0703793
0001f0 bd 25 d0 be ca 95 44 bf 8d 47 c8 3d ed c9 96 3f
       -0.40653792 -0.7679106 0.09779272 1.1780373
000200 96 03 03 3d b4 f4 26 3c 88 63 ee be 12 0a 0d bf
       0.03198584 0.010190178 -0.4656031 -0.5509349
000210 60 fd f0 be 34 70 a6 be 2b c0 f0 be 12 f3 c6 3d
       -0.4706831 -0.3250748 -0.47021613 0.09714331
000220 1d a7 0b bf b1 58 27 be 5f d2 94 be 52 cc ec be
       -0.5455187 -0.16342427 -0.2906675 -0.46249634
000230 d7 f3 ab 3f 25 ad 14 bf c4 a8 b7 be 12 eb 95 be
       1.3433789 -0.580767 -0.35870945 -0.29280907
000240 0b 31 cb be 32 2a e1 3f b5 b3 d8 3e 2e bc b5 be
       -0.39685854 1.7591002 0.42324606 -0.35495132
000250 92 60 d3 bd bd bc ee be 34 f3 a2 bc 27 87 f9 3f
       -0.10321154 -0.4662837 -0.019891359 1.949437
000260 2e 46 5b be d0 f7 22 be 34 d9 10 3d fe 0a 20 bf
       -0.2141349 -0.15914845 0.03536339 -0.6251677
000270 b1 b0 ce be 7c c5 ca 3e 44 b1 e0 bc 69 f4 9b 3e
       -0.4036918 0.39603794 -0.027428277 0.30459908
000280 94 21 c5 3f 39 cb 85 bf 44 4b 3b bc 10 74 e0 3f
       1.5400872 -1.0452644 -0.011431519 1.753542
000290 f4 e4 2b bf 03 19 33 bf e7 75 f2 be 1f 2c 8a 3b
       -0.6714623 -0.6996004 -0.47355577 0.0042166854
0002a0 6a 47 aa be f9 28 e4 be be 36 3e 3f 01 e9 a5 3f
       -0.3325761 -0.4456251 0.7430228 1.2961732
0002b0 84 9a b8 bd 51 79 9c 3f 35 56 b9 3f d5 80 91 3c
       -0.090138465 1.2224523 1.4479433 0.017761627
0002c0 9b a0 bb 3f af c5 f4 be 4f 3c a9 3f e1 eb a5 be
       1.4658388 -0.4780707 1.322153 -0.32406524
0002d0 ab 98 48 bf 20 e2 a0 be 60 c7 c0 be 75 94 9c be
       -0.7835795 -0.3142252 -0.3765211 -0.30582014
0002e0 8d b6 b2 bf 07 56 0f bf 3e ac 72 3d 8c 34 9f 3f
       -1.396196 -0.5599064 0.059246294 1.2437911
0002f0 cb 4e 5c bf c5 27 11 bf cc 24 7b 3d 42 d7 c6 3f
       -0.8605773 -0.5670131 0.06131439 1.5534441
000300 ef e8 ca 3d eb 31 90 3f 84 cd c5 be c0 67 52 be
       0.0990771 1.1265234 -0.38633358 -0.2054739
000310 ef 76 98 be 6e 72 a2 be fb 6c a2 be c2 9d 9e bd
       -0.2977824 -0.31727928 -0.3172377 -0.07744934
000320 1e b1 ac be 40 c1 cd be 2e 91 24 bf 09 26 01 bf
       -0.3372888 -0.401865 -0.64284027 -0.5044866
000330 97 06 63 3f 6b 08 34 bf 7d 86 4e be 4e e9 3e bf
       0.8868193 -0.70325345 -0.2016849 -0.74574745
000340 d0 be 15 bf 61 9d d5 3f 27 01 7a 3e 24 49 80 be
       -0.5849428 1.6688653 0.24414502 -0.25055802
000350 c7 27 ec be 25 3a ad be 7b c7 e0 bc 38 c5 fd 3e
       -0.46124098 -0.33833423 -0.02743887 0.49564528
000360 9f 5b e4 be ab e2 09 bf da e3 10 bf 3c 11 01 bf
       -0.4460115 -0.5386149 -0.56597674 -0.5041692
000370 11 73 8d 3b 35 7f 06 bf 1c d4 ce 3d 49 8e 8a be
       0.0043166955 -0.5253785 0.100990504 -0.2706168
000380 d0 fe d0 3f 1d 19 27 bf dc 98 52 3d e5 4c 10 40
       1.6327763 -0.65272695 0.05141531 2.2546933
000390 d0 ae e6 be 61 0c d1 be a6 9e a5 be 21 f2 1d bd
       -0.45055246 -0.40829757 -0.32347602 -0.03856099
0003a0 58 3b 99 be 32 d1 c7 be e5 97 3f 3e fd 68 cf 3f
       -0.29928088 -0.3902679 0.18710287 1.6203915
0003b0 03 eb e7 3c 8e c9 a9 3f d7 68 80 3f 20 a4 d8 3b
       0.028310305 1.3264635 1.0031995 0.006611362
0003c0 4e 4f a7 3f cb f5 10 bf 30 3b cd 3f 17 99 f9 be
       1.3071077 -0.5662505 1.6033688 -0.4874961
0003d0 7d 30 07 be 9a 7d 7c be 5b 9c c3 be 46 38 c1 be
       -0.1320209 -0.24657288 -0.38205227 -0.37738246
0003e0 49 4f cf bf 5c b1 a4 bd 85 b8 49 3f de 0b 01 40
       -1.6196071 -0.08041641 0.7879718 2.0163493
0003f0 d2 0d e1 be 49 07 0a be 6a 0b e3 bd c1 ee 6d 3f
       -0.43955857 -0.13479342 -0.110861614 0.92942435

logits.bias f4 [4]
000000 60 0a 93 3e 53 97 cb 3e ad aa ef 3e d6 09 88 bd
       0.28718853 0.3976389 0.46809903 -0.06642501
